ir_version: 6
producer_name: "pytorch"
producer_version: "1.6"
model_version: 0
graph {
  name: "torch-jit-export"
  node {
    input: "img"
    input: "body.conv1.weight"
    output: "457"
    name: "Conv_0"
    op_type: "Conv"
    attribute {
      name: "dilations"
      ints: 1
      ints: 1
      type: INTS
    }
    attribute {
      name: "group"
      i: 1
      type: INT
    }
    attribute {
      name: "kernel_shape"
      ints: 7
      ints: 7
      type: INTS
    }
    attribute {
      name: "pads"
      ints: 3
      ints: 3
      ints: 3
      ints: 3
      type: INTS
    }
    attribute {
      name: "strides"
      ints: 2
      ints: 2
      type: INTS
    }
  }
  node {
    input: "457"
    input: "body.bn1.weight"
    input: "body.bn1.bias"
    input: "body.bn1.running_mean"
    input: "body.bn1.running_var"
    output: "458"
    name: "BatchNormalization_1"
    op_type: "BatchNormalization"
    attribute {
      name: "epsilon"
      f: 9.999999747378752e-06
      type: FLOAT
    }
    attribute {
      name: "momentum"
      f: 0.8999999761581421
      type: FLOAT
    }
  }
  node {
    input: "458"
    output: "459"
    name: "Relu_2"
    op_type: "Relu"
  }
  node {
    input: "459"
    output: "460"
    name: "MaxPool_3"
    op_type: "MaxPool"
    attribute {
      name: "ceil_mode"
      i: 0
      type: INT
    }
    attribute {
      name: "kernel_shape"
      ints: 3
      ints: 3
      type: INTS
    }
    attribute {
      name: "pads"
      ints: 1
      ints: 1
      ints: 1
      ints: 1
      type: INTS
    }
    attribute {
      name: "strides"
      ints: 2
      ints: 2
      type: INTS
    }
  }
  node {
    input: "460"
    input: "body.layer1.0.conv1.weight"
    output: "461"
    name: "Conv_4"
    op_type: "Conv"
    attribute {
      name: "dilations"
      ints: 1
      ints: 1
      type: INTS
    }
    attribute {
      name: "group"
      i: 1
      type: INT
    }
    attribute {
      name: "kernel_shape"
      ints: 1
      ints: 1
      type: INTS
    }
    attribute {
      name: "pads"
      ints: 0
      ints: 0
      ints: 0
      ints: 0
      type: INTS
    }
    attribute {
      name: "strides"
      ints: 1
      ints: 1
      type: INTS
    }
  }
  node {
    input: "461"
    input: "body.layer1.0.bn1.weight"
    input: "body.layer1.0.bn1.bias"
    input: "body.layer1.0.bn1.running_mean"
    input: "body.layer1.0.bn1.running_var"
    output: "462"
    name: "BatchNormalization_5"
    op_type: "BatchNormalization"
    attribute {
      name: "epsilon"
      f: 9.999999747378752e-06
      type: FLOAT
    }
    attribute {
      name: "momentum"
      f: 0.8999999761581421
      type: FLOAT
    }
  }
  node {
    input: "462"
    output: "463"
    name: "Relu_6"
    op_type: "Relu"
  }
  node {
    input: "463"
    input: "body.layer1.0.conv2.weight"
    output: "464"
    name: "Conv_7"
    op_type: "Conv"
    attribute {
      name: "dilations"
      ints: 1
      ints: 1
      type: INTS
    }
    attribute {
      name: "group"
      i: 1
      type: INT
    }
    attribute {
      name: "kernel_shape"
      ints: 3
      ints: 3
      type: INTS
    }
    attribute {
      name: "pads"
      ints: 1
      ints: 1
      ints: 1
      ints: 1
      type: INTS
    }
    attribute {
      name: "strides"
      ints: 1
      ints: 1
      type: INTS
    }
  }
  node {
    input: "464"
    input: "body.layer1.0.bn2.weight"
    input: "body.layer1.0.bn2.bias"
    input: "body.layer1.0.bn2.running_mean"
    input: "body.layer1.0.bn2.running_var"
    output: "465"
    name: "BatchNormalization_8"
    op_type: "BatchNormalization"
    attribute {
      name: "epsilon"
      f: 9.999999747378752e-06
      type: FLOAT
    }
    attribute {
      name: "momentum"
      f: 0.8999999761581421
      type: FLOAT
    }
  }
  node {
    input: "465"
    output: "466"
    name: "Relu_9"
    op_type: "Relu"
  }
  node {
    input: "466"
    input: "body.layer1.0.conv3.weight"
    output: "467"
    name: "Conv_10"
    op_type: "Conv"
    attribute {
      name: "dilations"
      ints: 1
      ints: 1
      type: INTS
    }
    attribute {
      name: "group"
      i: 1
      type: INT
    }
    attribute {
      name: "kernel_shape"
      ints: 1
      ints: 1
      type: INTS
    }
    attribute {
      name: "pads"
      ints: 0
      ints: 0
      ints: 0
      ints: 0
      type: INTS
    }
    attribute {
      name: "strides"
      ints: 1
      ints: 1
      type: INTS
    }
  }
  node {
    input: "467"
    input: "body.layer1.0.bn3.weight"
    input: "body.layer1.0.bn3.bias"
    input: "body.layer1.0.bn3.running_mean"
    input: "body.layer1.0.bn3.running_var"
    output: "468"
    name: "BatchNormalization_11"
    op_type: "BatchNormalization"
    attribute {
      name: "epsilon"
      f: 9.999999747378752e-06
      type: FLOAT
    }
    attribute {
      name: "momentum"
      f: 0.8999999761581421
      type: FLOAT
    }
  }
  node {
    input: "460"
    input: "body.layer1.0.downsample.0.weight"
    output: "469"
    name: "Conv_12"
    op_type: "Conv"
    attribute {
      name: "dilations"
      ints: 1
      ints: 1
      type: INTS
    }
    attribute {
      name: "group"
      i: 1
      type: INT
    }
    attribute {
      name: "kernel_shape"
      ints: 1
      ints: 1
      type: INTS
    }
    attribute {
      name: "pads"
      ints: 0
      ints: 0
      ints: 0
      ints: 0
      type: INTS
    }
    attribute {
      name: "strides"
      ints: 1
      ints: 1
      type: INTS
    }
  }
  node {
    input: "469"
    input: "body.layer1.0.downsample.1.weight"
    input: "body.layer1.0.downsample.1.bias"
    input: "body.layer1.0.downsample.1.running_mean"
    input: "body.layer1.0.downsample.1.running_var"
    output: "470"
    name: "BatchNormalization_13"
    op_type: "BatchNormalization"
    attribute {
      name: "epsilon"
      f: 9.999999747378752e-06
      type: FLOAT
    }
    attribute {
      name: "momentum"
      f: 0.8999999761581421
      type: FLOAT
    }
  }
  node {
    input: "468"
    input: "470"
    output: "471"
    name: "Add_14"
    op_type: "Add"
  }
  node {
    input: "471"
    output: "472"
    name: "Relu_15"
    op_type: "Relu"
  }
  node {
    input: "472"
    input: "body.layer1.1.conv1.weight"
    output: "473"
    name: "Conv_16"
    op_type: "Conv"
    attribute {
      name: "dilations"
      ints: 1
      ints: 1
      type: INTS
    }
    attribute {
      name: "group"
      i: 1
      type: INT
    }
    attribute {
      name: "kernel_shape"
      ints: 1
      ints: 1
      type: INTS
    }
    attribute {
      name: "pads"
      ints: 0
      ints: 0
      ints: 0
      ints: 0
      type: INTS
    }
    attribute {
      name: "strides"
      ints: 1
      ints: 1
      type: INTS
    }
  }
  node {
    input: "473"
    input: "body.layer1.1.bn1.weight"
    input: "body.layer1.1.bn1.bias"
    input: "body.layer1.1.bn1.running_mean"
    input: "body.layer1.1.bn1.running_var"
    output: "474"
    name: "BatchNormalization_17"
    op_type: "BatchNormalization"
    attribute {
      name: "epsilon"
      f: 9.999999747378752e-06
      type: FLOAT
    }
    attribute {
      name: "momentum"
      f: 0.8999999761581421
      type: FLOAT
    }
  }
  node {
    input: "474"
    output: "475"
    name: "Relu_18"
    op_type: "Relu"
  }
  node {
    input: "475"
    input: "body.layer1.1.conv2.weight"
    output: "476"
    name: "Conv_19"
    op_type: "Conv"
    attribute {
      name: "dilations"
      ints: 1
      ints: 1
      type: INTS
    }
    attribute {
      name: "group"
      i: 1
      type: INT
    }
    attribute {
      name: "kernel_shape"
      ints: 3
      ints: 3
      type: INTS
    }
    attribute {
      name: "pads"
      ints: 1
      ints: 1
      ints: 1
      ints: 1
      type: INTS
    }
    attribute {
      name: "strides"
      ints: 1
      ints: 1
      type: INTS
    }
  }
  node {
    input: "476"
    input: "body.layer1.1.bn2.weight"
    input: "body.layer1.1.bn2.bias"
    input: "body.layer1.1.bn2.running_mean"
    input: "body.layer1.1.bn2.running_var"
    output: "477"
    name: "BatchNormalization_20"
    op_type: "BatchNormalization"
    attribute {
      name: "epsilon"
      f: 9.999999747378752e-06
      type: FLOAT
    }
    attribute {
      name: "momentum"
      f: 0.8999999761581421
      type: FLOAT
    }
  }
  node {
    input: "477"
    output: "478"
    name: "Relu_21"
    op_type: "Relu"
  }
  node {
    input: "478"
    input: "body.layer1.1.conv3.weight"
    output: "479"
    name: "Conv_22"
    op_type: "Conv"
    attribute {
      name: "dilations"
      ints: 1
      ints: 1
      type: INTS
    }
    attribute {
      name: "group"
      i: 1
      type: INT
    }
    attribute {
      name: "kernel_shape"
      ints: 1
      ints: 1
      type: INTS
    }
    attribute {
      name: "pads"
      ints: 0
      ints: 0
      ints: 0
      ints: 0
      type: INTS
    }
    attribute {
      name: "strides"
      ints: 1
      ints: 1
      type: INTS
    }
  }
  node {
    input: "479"
    input: "body.layer1.1.bn3.weight"
    input: "body.layer1.1.bn3.bias"
    input: "body.layer1.1.bn3.running_mean"
    input: "body.layer1.1.bn3.running_var"
    output: "480"
    name: "BatchNormalization_23"
    op_type: "BatchNormalization"
    attribute {
      name: "epsilon"
      f: 9.999999747378752e-06
      type: FLOAT
    }
    attribute {
      name: "momentum"
      f: 0.8999999761581421
      type: FLOAT
    }
  }
  node {
    input: "480"
    input: "472"
    output: "481"
    name: "Add_24"
    op_type: "Add"
  }
  node {
    input: "481"
    output: "482"
    name: "Relu_25"
    op_type: "Relu"
  }
  node {
    input: "482"
    input: "body.layer1.2.conv1.weight"
    output: "483"
    name: "Conv_26"
    op_type: "Conv"
    attribute {
      name: "dilations"
      ints: 1
      ints: 1
      type: INTS
    }
    attribute {
      name: "group"
      i: 1
      type: INT
    }
    attribute {
      name: "kernel_shape"
      ints: 1
      ints: 1
      type: INTS
    }
    attribute {
      name: "pads"
      ints: 0
      ints: 0
      ints: 0
      ints: 0
      type: INTS
    }
    attribute {
      name: "strides"
      ints: 1
      ints: 1
      type: INTS
    }
  }
  node {
    input: "483"
    input: "body.layer1.2.bn1.weight"
    input: "body.layer1.2.bn1.bias"
    input: "body.layer1.2.bn1.running_mean"
    input: "body.layer1.2.bn1.running_var"
    output: "484"
    name: "BatchNormalization_27"
    op_type: "BatchNormalization"
    attribute {
      name: "epsilon"
      f: 9.999999747378752e-06
      type: FLOAT
    }
    attribute {
      name: "momentum"
      f: 0.8999999761581421
      type: FLOAT
    }
  }
  node {
    input: "484"
    output: "485"
    name: "Relu_28"
    op_type: "Relu"
  }
  node {
    input: "485"
    input: "body.layer1.2.conv2.weight"
    output: "486"
    name: "Conv_29"
    op_type: "Conv"
    attribute {
      name: "dilations"
      ints: 1
      ints: 1
      type: INTS
    }
    attribute {
      name: "group"
      i: 1
      type: INT
    }
    attribute {
      name: "kernel_shape"
      ints: 3
      ints: 3
      type: INTS
    }
    attribute {
      name: "pads"
      ints: 1
      ints: 1
      ints: 1
      ints: 1
      type: INTS
    }
    attribute {
      name: "strides"
      ints: 1
      ints: 1
      type: INTS
    }
  }
  node {
    input: "486"
    input: "body.layer1.2.bn2.weight"
    input: "body.layer1.2.bn2.bias"
    input: "body.layer1.2.bn2.running_mean"
    input: "body.layer1.2.bn2.running_var"
    output: "487"
    name: "BatchNormalization_30"
    op_type: "BatchNormalization"
    attribute {
      name: "epsilon"
      f: 9.999999747378752e-06
      type: FLOAT
    }
    attribute {
      name: "momentum"
      f: 0.8999999761581421
      type: FLOAT
    }
  }
  node {
    input: "487"
    output: "488"
    name: "Relu_31"
    op_type: "Relu"
  }
  node {
    input: "488"
    input: "body.layer1.2.conv3.weight"
    output: "489"
    name: "Conv_32"
    op_type: "Conv"
    attribute {
      name: "dilations"
      ints: 1
      ints: 1
      type: INTS
    }
    attribute {
      name: "group"
      i: 1
      type: INT
    }
    attribute {
      name: "kernel_shape"
      ints: 1
      ints: 1
      type: INTS
    }
    attribute {
      name: "pads"
      ints: 0
      ints: 0
      ints: 0
      ints: 0
      type: INTS
    }
    attribute {
      name: "strides"
      ints: 1
      ints: 1
      type: INTS
    }
  }
  node {
    input: "489"
    input: "body.layer1.2.bn3.weight"
    input: "body.layer1.2.bn3.bias"
    input: "body.layer1.2.bn3.running_mean"
    input: "body.layer1.2.bn3.running_var"
    output: "490"
    name: "BatchNormalization_33"
    op_type: "BatchNormalization"
    attribute {
      name: "epsilon"
      f: 9.999999747378752e-06
      type: FLOAT
    }
    attribute {
      name: "momentum"
      f: 0.8999999761581421
      type: FLOAT
    }
  }
  node {
    input: "490"
    input: "482"
    output: "491"
    name: "Add_34"
    op_type: "Add"
  }
  node {
    input: "491"
    output: "492"
    name: "Relu_35"
    op_type: "Relu"
  }
  node {
    input: "492"
    input: "body.layer2.0.conv1.weight"
    output: "493"
    name: "Conv_36"
    op_type: "Conv"
    attribute {
      name: "dilations"
      ints: 1
      ints: 1
      type: INTS
    }
    attribute {
      name: "group"
      i: 1
      type: INT
    }
    attribute {
      name: "kernel_shape"
      ints: 1
      ints: 1
      type: INTS
    }
    attribute {
      name: "pads"
      ints: 0
      ints: 0
      ints: 0
      ints: 0
      type: INTS
    }
    attribute {
      name: "strides"
      ints: 1
      ints: 1
      type: INTS
    }
  }
  node {
    input: "493"
    input: "body.layer2.0.bn1.weight"
    input: "body.layer2.0.bn1.bias"
    input: "body.layer2.0.bn1.running_mean"
    input: "body.layer2.0.bn1.running_var"
    output: "494"
    name: "BatchNormalization_37"
    op_type: "BatchNormalization"
    attribute {
      name: "epsilon"
      f: 9.999999747378752e-06
      type: FLOAT
    }
    attribute {
      name: "momentum"
      f: 0.8999999761581421
      type: FLOAT
    }
  }
  node {
    input: "494"
    output: "495"
    name: "Relu_38"
    op_type: "Relu"
  }
  node {
    input: "495"
    input: "body.layer2.0.conv2.weight"
    output: "496"
    name: "Conv_39"
    op_type: "Conv"
    attribute {
      name: "dilations"
      ints: 1
      ints: 1
      type: INTS
    }
    attribute {
      name: "group"
      i: 1
      type: INT
    }
    attribute {
      name: "kernel_shape"
      ints: 3
      ints: 3
      type: INTS
    }
    attribute {
      name: "pads"
      ints: 1
      ints: 1
      ints: 1
      ints: 1
      type: INTS
    }
    attribute {
      name: "strides"
      ints: 2
      ints: 2
      type: INTS
    }
  }
  node {
    input: "496"
    input: "body.layer2.0.bn2.weight"
    input: "body.layer2.0.bn2.bias"
    input: "body.layer2.0.bn2.running_mean"
    input: "body.layer2.0.bn2.running_var"
    output: "497"
    name: "BatchNormalization_40"
    op_type: "BatchNormalization"
    attribute {
      name: "epsilon"
      f: 9.999999747378752e-06
      type: FLOAT
    }
    attribute {
      name: "momentum"
      f: 0.8999999761581421
      type: FLOAT
    }
  }
  node {
    input: "497"
    output: "498"
    name: "Relu_41"
    op_type: "Relu"
  }
  node {
    input: "498"
    input: "body.layer2.0.conv3.weight"
    output: "499"
    name: "Conv_42"
    op_type: "Conv"
    attribute {
      name: "dilations"
      ints: 1
      ints: 1
      type: INTS
    }
    attribute {
      name: "group"
      i: 1
      type: INT
    }
    attribute {
      name: "kernel_shape"
      ints: 1
      ints: 1
      type: INTS
    }
    attribute {
      name: "pads"
      ints: 0
      ints: 0
      ints: 0
      ints: 0
      type: INTS
    }
    attribute {
      name: "strides"
      ints: 1
      ints: 1
      type: INTS
    }
  }
  node {
    input: "499"
    input: "body.layer2.0.bn3.weight"
    input: "body.layer2.0.bn3.bias"
    input: "body.layer2.0.bn3.running_mean"
    input: "body.layer2.0.bn3.running_var"
    output: "500"
    name: "BatchNormalization_43"
    op_type: "BatchNormalization"
    attribute {
      name: "epsilon"
      f: 9.999999747378752e-06
      type: FLOAT
    }
    attribute {
      name: "momentum"
      f: 0.8999999761581421
      type: FLOAT
    }
  }
  node {
    input: "492"
    input: "body.layer2.0.downsample.0.weight"
    output: "501"
    name: "Conv_44"
    op_type: "Conv"
    attribute {
      name: "dilations"
      ints: 1
      ints: 1
      type: INTS
    }
    attribute {
      name: "group"
      i: 1
      type: INT
    }
    attribute {
      name: "kernel_shape"
      ints: 1
      ints: 1
      type: INTS
    }
    attribute {
      name: "pads"
      ints: 0
      ints: 0
      ints: 0
      ints: 0
      type: INTS
    }
    attribute {
      name: "strides"
      ints: 2
      ints: 2
      type: INTS
    }
  }
  node {
    input: "501"
    input: "body.layer2.0.downsample.1.weight"
    input: "body.layer2.0.downsample.1.bias"
    input: "body.layer2.0.downsample.1.running_mean"
    input: "body.layer2.0.downsample.1.running_var"
    output: "502"
    name: "BatchNormalization_45"
    op_type: "BatchNormalization"
    attribute {
      name: "epsilon"
      f: 9.999999747378752e-06
      type: FLOAT
    }
    attribute {
      name: "momentum"
      f: 0.8999999761581421
      type: FLOAT
    }
  }
  node {
    input: "500"
    input: "502"
    output: "503"
    name: "Add_46"
    op_type: "Add"
  }
  node {
    input: "503"
    output: "504"
    name: "Relu_47"
    op_type: "Relu"
  }
  node {
    input: "504"
    input: "body.layer2.1.conv1.weight"
    output: "505"
    name: "Conv_48"
    op_type: "Conv"
    attribute {
      name: "dilations"
      ints: 1
      ints: 1
      type: INTS
    }
    attribute {
      name: "group"
      i: 1
      type: INT
    }
    attribute {
      name: "kernel_shape"
      ints: 1
      ints: 1
      type: INTS
    }
    attribute {
      name: "pads"
      ints: 0
      ints: 0
      ints: 0
      ints: 0
      type: INTS
    }
    attribute {
      name: "strides"
      ints: 1
      ints: 1
      type: INTS
    }
  }
  node {
    input: "505"
    input: "body.layer2.1.bn1.weight"
    input: "body.layer2.1.bn1.bias"
    input: "body.layer2.1.bn1.running_mean"
    input: "body.layer2.1.bn1.running_var"
    output: "506"
    name: "BatchNormalization_49"
    op_type: "BatchNormalization"
    attribute {
      name: "epsilon"
      f: 9.999999747378752e-06
      type: FLOAT
    }
    attribute {
      name: "momentum"
      f: 0.8999999761581421
      type: FLOAT
    }
  }
  node {
    input: "506"
    output: "507"
    name: "Relu_50"
    op_type: "Relu"
  }
  node {
    input: "507"
    input: "body.layer2.1.conv2.weight"
    output: "508"
    name: "Conv_51"
    op_type: "Conv"
    attribute {
      name: "dilations"
      ints: 1
      ints: 1
      type: INTS
    }
    attribute {
      name: "group"
      i: 1
      type: INT
    }
    attribute {
      name: "kernel_shape"
      ints: 3
      ints: 3
      type: INTS
    }
    attribute {
      name: "pads"
      ints: 1
      ints: 1
      ints: 1
      ints: 1
      type: INTS
    }
    attribute {
      name: "strides"
      ints: 1
      ints: 1
      type: INTS
    }
  }
  node {
    input: "508"
    input: "body.layer2.1.bn2.weight"
    input: "body.layer2.1.bn2.bias"
    input: "body.layer2.1.bn2.running_mean"
    input: "body.layer2.1.bn2.running_var"
    output: "509"
    name: "BatchNormalization_52"
    op_type: "BatchNormalization"
    attribute {
      name: "epsilon"
      f: 9.999999747378752e-06
      type: FLOAT
    }
    attribute {
      name: "momentum"
      f: 0.8999999761581421
      type: FLOAT
    }
  }
  node {
    input: "509"
    output: "510"
    name: "Relu_53"
    op_type: "Relu"
  }
  node {
    input: "510"
    input: "body.layer2.1.conv3.weight"
    output: "511"
    name: "Conv_54"
    op_type: "Conv"
    attribute {
      name: "dilations"
      ints: 1
      ints: 1
      type: INTS
    }
    attribute {
      name: "group"
      i: 1
      type: INT
    }
    attribute {
      name: "kernel_shape"
      ints: 1
      ints: 1
      type: INTS
    }
    attribute {
      name: "pads"
      ints: 0
      ints: 0
      ints: 0
      ints: 0
      type: INTS
    }
    attribute {
      name: "strides"
      ints: 1
      ints: 1
      type: INTS
    }
  }
  node {
    input: "511"
    input: "body.layer2.1.bn3.weight"
    input: "body.layer2.1.bn3.bias"
    input: "body.layer2.1.bn3.running_mean"
    input: "body.layer2.1.bn3.running_var"
    output: "512"
    name: "BatchNormalization_55"
    op_type: "BatchNormalization"
    attribute {
      name: "epsilon"
      f: 9.999999747378752e-06
      type: FLOAT
    }
    attribute {
      name: "momentum"
      f: 0.8999999761581421
      type: FLOAT
    }
  }
  node {
    input: "512"
    input: "504"
    output: "513"
    name: "Add_56"
    op_type: "Add"
  }
  node {
    input: "513"
    output: "514"
    name: "Relu_57"
    op_type: "Relu"
  }
  node {
    input: "514"
    input: "body.layer2.2.conv1.weight"
    output: "515"
    name: "Conv_58"
    op_type: "Conv"
    attribute {
      name: "dilations"
      ints: 1
      ints: 1
      type: INTS
    }
    attribute {
      name: "group"
      i: 1
      type: INT
    }
    attribute {
      name: "kernel_shape"
      ints: 1
      ints: 1
      type: INTS
    }
    attribute {
      name: "pads"
      ints: 0
      ints: 0
      ints: 0
      ints: 0
      type: INTS
    }
    attribute {
      name: "strides"
      ints: 1
      ints: 1
      type: INTS
    }
  }
  node {
    input: "515"
    input: "body.layer2.2.bn1.weight"
    input: "body.layer2.2.bn1.bias"
    input: "body.layer2.2.bn1.running_mean"
    input: "body.layer2.2.bn1.running_var"
    output: "516"
    name: "BatchNormalization_59"
    op_type: "BatchNormalization"
    attribute {
      name: "epsilon"
      f: 9.999999747378752e-06
      type: FLOAT
    }
    attribute {
      name: "momentum"
      f: 0.8999999761581421
      type: FLOAT
    }
  }
  node {
    input: "516"
    output: "517"
    name: "Relu_60"
    op_type: "Relu"
  }
  node {
    input: "517"
    input: "body.layer2.2.conv2.weight"
    output: "518"
    name: "Conv_61"
    op_type: "Conv"
    attribute {
      name: "dilations"
      ints: 1
      ints: 1
      type: INTS
    }
    attribute {
      name: "group"
      i: 1
      type: INT
    }
    attribute {
      name: "kernel_shape"
      ints: 3
      ints: 3
      type: INTS
    }
    attribute {
      name: "pads"
      ints: 1
      ints: 1
      ints: 1
      ints: 1
      type: INTS
    }
    attribute {
      name: "strides"
      ints: 1
      ints: 1
      type: INTS
    }
  }
  node {
    input: "518"
    input: "body.layer2.2.bn2.weight"
    input: "body.layer2.2.bn2.bias"
    input: "body.layer2.2.bn2.running_mean"
    input: "body.layer2.2.bn2.running_var"
    output: "519"
    name: "BatchNormalization_62"
    op_type: "BatchNormalization"
    attribute {
      name: "epsilon"
      f: 9.999999747378752e-06
      type: FLOAT
    }
    attribute {
      name: "momentum"
      f: 0.8999999761581421
      type: FLOAT
    }
  }
  node {
    input: "519"
    output: "520"
    name: "Relu_63"
    op_type: "Relu"
  }
  node {
    input: "520"
    input: "body.layer2.2.conv3.weight"
    output: "521"
    name: "Conv_64"
    op_type: "Conv"
    attribute {
      name: "dilations"
      ints: 1
      ints: 1
      type: INTS
    }
    attribute {
      name: "group"
      i: 1
      type: INT
    }
    attribute {
      name: "kernel_shape"
      ints: 1
      ints: 1
      type: INTS
    }
    attribute {
      name: "pads"
      ints: 0
      ints: 0
      ints: 0
      ints: 0
      type: INTS
    }
    attribute {
      name: "strides"
      ints: 1
      ints: 1
      type: INTS
    }
  }
  node {
    input: "521"
    input: "body.layer2.2.bn3.weight"
    input: "body.layer2.2.bn3.bias"
    input: "body.layer2.2.bn3.running_mean"
    input: "body.layer2.2.bn3.running_var"
    output: "522"
    name: "BatchNormalization_65"
    op_type: "BatchNormalization"
    attribute {
      name: "epsilon"
      f: 9.999999747378752e-06
      type: FLOAT
    }
    attribute {
      name: "momentum"
      f: 0.8999999761581421
      type: FLOAT
    }
  }
  node {
    input: "522"
    input: "514"
    output: "523"
    name: "Add_66"
    op_type: "Add"
  }
  node {
    input: "523"
    output: "524"
    name: "Relu_67"
    op_type: "Relu"
  }
  node {
    input: "524"
    input: "body.layer2.3.conv1.weight"
    output: "525"
    name: "Conv_68"
    op_type: "Conv"
    attribute {
      name: "dilations"
      ints: 1
      ints: 1
      type: INTS
    }
    attribute {
      name: "group"
      i: 1
      type: INT
    }
    attribute {
      name: "kernel_shape"
      ints: 1
      ints: 1
      type: INTS
    }
    attribute {
      name: "pads"
      ints: 0
      ints: 0
      ints: 0
      ints: 0
      type: INTS
    }
    attribute {
      name: "strides"
      ints: 1
      ints: 1
      type: INTS
    }
  }
  node {
    input: "525"
    input: "body.layer2.3.bn1.weight"
    input: "body.layer2.3.bn1.bias"
    input: "body.layer2.3.bn1.running_mean"
    input: "body.layer2.3.bn1.running_var"
    output: "526"
    name: "BatchNormalization_69"
    op_type: "BatchNormalization"
    attribute {
      name: "epsilon"
      f: 9.999999747378752e-06
      type: FLOAT
    }
    attribute {
      name: "momentum"
      f: 0.8999999761581421
      type: FLOAT
    }
  }
  node {
    input: "526"
    output: "527"
    name: "Relu_70"
    op_type: "Relu"
  }
  node {
    input: "527"
    input: "body.layer2.3.conv2.weight"
    output: "528"
    name: "Conv_71"
    op_type: "Conv"
    attribute {
      name: "dilations"
      ints: 1
      ints: 1
      type: INTS
    }
    attribute {
      name: "group"
      i: 1
      type: INT
    }
    attribute {
      name: "kernel_shape"
      ints: 3
      ints: 3
      type: INTS
    }
    attribute {
      name: "pads"
      ints: 1
      ints: 1
      ints: 1
      ints: 1
      type: INTS
    }
    attribute {
      name: "strides"
      ints: 1
      ints: 1
      type: INTS
    }
  }
  node {
    input: "528"
    input: "body.layer2.3.bn2.weight"
    input: "body.layer2.3.bn2.bias"
    input: "body.layer2.3.bn2.running_mean"
    input: "body.layer2.3.bn2.running_var"
    output: "529"
    name: "BatchNormalization_72"
    op_type: "BatchNormalization"
    attribute {
      name: "epsilon"
      f: 9.999999747378752e-06
      type: FLOAT
    }
    attribute {
      name: "momentum"
      f: 0.8999999761581421
      type: FLOAT
    }
  }
  node {
    input: "529"
    output: "530"
    name: "Relu_73"
    op_type: "Relu"
  }
  node {
    input: "530"
    input: "body.layer2.3.conv3.weight"
    output: "531"
    name: "Conv_74"
    op_type: "Conv"
    attribute {
      name: "dilations"
      ints: 1
      ints: 1
      type: INTS
    }
    attribute {
      name: "group"
      i: 1
      type: INT
    }
    attribute {
      name: "kernel_shape"
      ints: 1
      ints: 1
      type: INTS
    }
    attribute {
      name: "pads"
      ints: 0
      ints: 0
      ints: 0
      ints: 0
      type: INTS
    }
    attribute {
      name: "strides"
      ints: 1
      ints: 1
      type: INTS
    }
  }
  node {
    input: "531"
    input: "body.layer2.3.bn3.weight"
    input: "body.layer2.3.bn3.bias"
    input: "body.layer2.3.bn3.running_mean"
    input: "body.layer2.3.bn3.running_var"
    output: "532"
    name: "BatchNormalization_75"
    op_type: "BatchNormalization"
    attribute {
      name: "epsilon"
      f: 9.999999747378752e-06
      type: FLOAT
    }
    attribute {
      name: "momentum"
      f: 0.8999999761581421
      type: FLOAT
    }
  }
  node {
    input: "532"
    input: "524"
    output: "533"
    name: "Add_76"
    op_type: "Add"
  }
  node {
    input: "533"
    output: "534"
    name: "Relu_77"
    op_type: "Relu"
  }
  node {
    input: "534"
    input: "body.layer3.0.conv1.weight"
    output: "535"
    name: "Conv_78"
    op_type: "Conv"
    attribute {
      name: "dilations"
      ints: 1
      ints: 1
      type: INTS
    }
    attribute {
      name: "group"
      i: 1
      type: INT
    }
    attribute {
      name: "kernel_shape"
      ints: 1
      ints: 1
      type: INTS
    }
    attribute {
      name: "pads"
      ints: 0
      ints: 0
      ints: 0
      ints: 0
      type: INTS
    }
    attribute {
      name: "strides"
      ints: 1
      ints: 1
      type: INTS
    }
  }
  node {
    input: "535"
    input: "body.layer3.0.bn1.weight"
    input: "body.layer3.0.bn1.bias"
    input: "body.layer3.0.bn1.running_mean"
    input: "body.layer3.0.bn1.running_var"
    output: "536"
    name: "BatchNormalization_79"
    op_type: "BatchNormalization"
    attribute {
      name: "epsilon"
      f: 9.999999747378752e-06
      type: FLOAT
    }
    attribute {
      name: "momentum"
      f: 0.8999999761581421
      type: FLOAT
    }
  }
  node {
    input: "536"
    output: "537"
    name: "Relu_80"
    op_type: "Relu"
  }
  node {
    input: "537"
    input: "body.layer3.0.conv2.weight"
    output: "538"
    name: "Conv_81"
    op_type: "Conv"
    attribute {
      name: "dilations"
      ints: 1
      ints: 1
      type: INTS
    }
    attribute {
      name: "group"
      i: 1
      type: INT
    }
    attribute {
      name: "kernel_shape"
      ints: 3
      ints: 3
      type: INTS
    }
    attribute {
      name: "pads"
      ints: 1
      ints: 1
      ints: 1
      ints: 1
      type: INTS
    }
    attribute {
      name: "strides"
      ints: 2
      ints: 2
      type: INTS
    }
  }
  node {
    input: "538"
    input: "body.layer3.0.bn2.weight"
    input: "body.layer3.0.bn2.bias"
    input: "body.layer3.0.bn2.running_mean"
    input: "body.layer3.0.bn2.running_var"
    output: "539"
    name: "BatchNormalization_82"
    op_type: "BatchNormalization"
    attribute {
      name: "epsilon"
      f: 9.999999747378752e-06
      type: FLOAT
    }
    attribute {
      name: "momentum"
      f: 0.8999999761581421
      type: FLOAT
    }
  }
  node {
    input: "539"
    output: "540"
    name: "Relu_83"
    op_type: "Relu"
  }
  node {
    input: "540"
    input: "body.layer3.0.conv3.weight"
    output: "541"
    name: "Conv_84"
    op_type: "Conv"
    attribute {
      name: "dilations"
      ints: 1
      ints: 1
      type: INTS
    }
    attribute {
      name: "group"
      i: 1
      type: INT
    }
    attribute {
      name: "kernel_shape"
      ints: 1
      ints: 1
      type: INTS
    }
    attribute {
      name: "pads"
      ints: 0
      ints: 0
      ints: 0
      ints: 0
      type: INTS
    }
    attribute {
      name: "strides"
      ints: 1
      ints: 1
      type: INTS
    }
  }
  node {
    input: "541"
    input: "body.layer3.0.bn3.weight"
    input: "body.layer3.0.bn3.bias"
    input: "body.layer3.0.bn3.running_mean"
    input: "body.layer3.0.bn3.running_var"
    output: "542"
    name: "BatchNormalization_85"
    op_type: "BatchNormalization"
    attribute {
      name: "epsilon"
      f: 9.999999747378752e-06
      type: FLOAT
    }
    attribute {
      name: "momentum"
      f: 0.8999999761581421
      type: FLOAT
    }
  }
  node {
    input: "534"
    input: "body.layer3.0.downsample.0.weight"
    output: "543"
    name: "Conv_86"
    op_type: "Conv"
    attribute {
      name: "dilations"
      ints: 1
      ints: 1
      type: INTS
    }
    attribute {
      name: "group"
      i: 1
      type: INT
    }
    attribute {
      name: "kernel_shape"
      ints: 1
      ints: 1
      type: INTS
    }
    attribute {
      name: "pads"
      ints: 0
      ints: 0
      ints: 0
      ints: 0
      type: INTS
    }
    attribute {
      name: "strides"
      ints: 2
      ints: 2
      type: INTS
    }
  }
  node {
    input: "543"
    input: "body.layer3.0.downsample.1.weight"
    input: "body.layer3.0.downsample.1.bias"
    input: "body.layer3.0.downsample.1.running_mean"
    input: "body.layer3.0.downsample.1.running_var"
    output: "544"
    name: "BatchNormalization_87"
    op_type: "BatchNormalization"
    attribute {
      name: "epsilon"
      f: 9.999999747378752e-06
      type: FLOAT
    }
    attribute {
      name: "momentum"
      f: 0.8999999761581421
      type: FLOAT
    }
  }
  node {
    input: "542"
    input: "544"
    output: "545"
    name: "Add_88"
    op_type: "Add"
  }
  node {
    input: "545"
    output: "546"
    name: "Relu_89"
    op_type: "Relu"
  }
  node {
    input: "546"
    input: "body.layer3.1.conv1.weight"
    output: "547"
    name: "Conv_90"
    op_type: "Conv"
    attribute {
      name: "dilations"
      ints: 1
      ints: 1
      type: INTS
    }
    attribute {
      name: "group"
      i: 1
      type: INT
    }
    attribute {
      name: "kernel_shape"
      ints: 1
      ints: 1
      type: INTS
    }
    attribute {
      name: "pads"
      ints: 0
      ints: 0
      ints: 0
      ints: 0
      type: INTS
    }
    attribute {
      name: "strides"
      ints: 1
      ints: 1
      type: INTS
    }
  }
  node {
    input: "547"
    input: "body.layer3.1.bn1.weight"
    input: "body.layer3.1.bn1.bias"
    input: "body.layer3.1.bn1.running_mean"
    input: "body.layer3.1.bn1.running_var"
    output: "548"
    name: "BatchNormalization_91"
    op_type: "BatchNormalization"
    attribute {
      name: "epsilon"
      f: 9.999999747378752e-06
      type: FLOAT
    }
    attribute {
      name: "momentum"
      f: 0.8999999761581421
      type: FLOAT
    }
  }
  node {
    input: "548"
    output: "549"
    name: "Relu_92"
    op_type: "Relu"
  }
  node {
    input: "549"
    input: "body.layer3.1.conv2.weight"
    output: "550"
    name: "Conv_93"
    op_type: "Conv"
    attribute {
      name: "dilations"
      ints: 1
      ints: 1
      type: INTS
    }
    attribute {
      name: "group"
      i: 1
      type: INT
    }
    attribute {
      name: "kernel_shape"
      ints: 3
      ints: 3
      type: INTS
    }
    attribute {
      name: "pads"
      ints: 1
      ints: 1
      ints: 1
      ints: 1
      type: INTS
    }
    attribute {
      name: "strides"
      ints: 1
      ints: 1
      type: INTS
    }
  }
  node {
    input: "550"
    input: "body.layer3.1.bn2.weight"
    input: "body.layer3.1.bn2.bias"
    input: "body.layer3.1.bn2.running_mean"
    input: "body.layer3.1.bn2.running_var"
    output: "551"
    name: "BatchNormalization_94"
    op_type: "BatchNormalization"
    attribute {
      name: "epsilon"
      f: 9.999999747378752e-06
      type: FLOAT
    }
    attribute {
      name: "momentum"
      f: 0.8999999761581421
      type: FLOAT
    }
  }
  node {
    input: "551"
    output: "552"
    name: "Relu_95"
    op_type: "Relu"
  }
  node {
    input: "552"
    input: "body.layer3.1.conv3.weight"
    output: "553"
    name: "Conv_96"
    op_type: "Conv"
    attribute {
      name: "dilations"
      ints: 1
      ints: 1
      type: INTS
    }
    attribute {
      name: "group"
      i: 1
      type: INT
    }
    attribute {
      name: "kernel_shape"
      ints: 1
      ints: 1
      type: INTS
    }
    attribute {
      name: "pads"
      ints: 0
      ints: 0
      ints: 0
      ints: 0
      type: INTS
    }
    attribute {
      name: "strides"
      ints: 1
      ints: 1
      type: INTS
    }
  }
  node {
    input: "553"
    input: "body.layer3.1.bn3.weight"
    input: "body.layer3.1.bn3.bias"
    input: "body.layer3.1.bn3.running_mean"
    input: "body.layer3.1.bn3.running_var"
    output: "554"
    name: "BatchNormalization_97"
    op_type: "BatchNormalization"
    attribute {
      name: "epsilon"
      f: 9.999999747378752e-06
      type: FLOAT
    }
    attribute {
      name: "momentum"
      f: 0.8999999761581421
      type: FLOAT
    }
  }
  node {
    input: "554"
    input: "546"
    output: "555"
    name: "Add_98"
    op_type: "Add"
  }
  node {
    input: "555"
    output: "556"
    name: "Relu_99"
    op_type: "Relu"
  }
  node {
    input: "556"
    input: "body.layer3.2.conv1.weight"
    output: "557"
    name: "Conv_100"
    op_type: "Conv"
    attribute {
      name: "dilations"
      ints: 1
      ints: 1
      type: INTS
    }
    attribute {
      name: "group"
      i: 1
      type: INT
    }
    attribute {
      name: "kernel_shape"
      ints: 1
      ints: 1
      type: INTS
    }
    attribute {
      name: "pads"
      ints: 0
      ints: 0
      ints: 0
      ints: 0
      type: INTS
    }
    attribute {
      name: "strides"
      ints: 1
      ints: 1
      type: INTS
    }
  }
  node {
    input: "557"
    input: "body.layer3.2.bn1.weight"
    input: "body.layer3.2.bn1.bias"
    input: "body.layer3.2.bn1.running_mean"
    input: "body.layer3.2.bn1.running_var"
    output: "558"
    name: "BatchNormalization_101"
    op_type: "BatchNormalization"
    attribute {
      name: "epsilon"
      f: 9.999999747378752e-06
      type: FLOAT
    }
    attribute {
      name: "momentum"
      f: 0.8999999761581421
      type: FLOAT
    }
  }
  node {
    input: "558"
    output: "559"
    name: "Relu_102"
    op_type: "Relu"
  }
  node {
    input: "559"
    input: "body.layer3.2.conv2.weight"
    output: "560"
    name: "Conv_103"
    op_type: "Conv"
    attribute {
      name: "dilations"
      ints: 1
      ints: 1
      type: INTS
    }
    attribute {
      name: "group"
      i: 1
      type: INT
    }
    attribute {
      name: "kernel_shape"
      ints: 3
      ints: 3
      type: INTS
    }
    attribute {
      name: "pads"
      ints: 1
      ints: 1
      ints: 1
      ints: 1
      type: INTS
    }
    attribute {
      name: "strides"
      ints: 1
      ints: 1
      type: INTS
    }
  }
  node {
    input: "560"
    input: "body.layer3.2.bn2.weight"
    input: "body.layer3.2.bn2.bias"
    input: "body.layer3.2.bn2.running_mean"
    input: "body.layer3.2.bn2.running_var"
    output: "561"
    name: "BatchNormalization_104"
    op_type: "BatchNormalization"
    attribute {
      name: "epsilon"
      f: 9.999999747378752e-06
      type: FLOAT
    }
    attribute {
      name: "momentum"
      f: 0.8999999761581421
      type: FLOAT
    }
  }
  node {
    input: "561"
    output: "562"
    name: "Relu_105"
    op_type: "Relu"
  }
  node {
    input: "562"
    input: "body.layer3.2.conv3.weight"
    output: "563"
    name: "Conv_106"
    op_type: "Conv"
    attribute {
      name: "dilations"
      ints: 1
      ints: 1
      type: INTS
    }
    attribute {
      name: "group"
      i: 1
      type: INT
    }
    attribute {
      name: "kernel_shape"
      ints: 1
      ints: 1
      type: INTS
    }
    attribute {
      name: "pads"
      ints: 0
      ints: 0
      ints: 0
      ints: 0
      type: INTS
    }
    attribute {
      name: "strides"
      ints: 1
      ints: 1
      type: INTS
    }
  }
  node {
    input: "563"
    input: "body.layer3.2.bn3.weight"
    input: "body.layer3.2.bn3.bias"
    input: "body.layer3.2.bn3.running_mean"
    input: "body.layer3.2.bn3.running_var"
    output: "564"
    name: "BatchNormalization_107"
    op_type: "BatchNormalization"
    attribute {
      name: "epsilon"
      f: 9.999999747378752e-06
      type: FLOAT
    }
    attribute {
      name: "momentum"
      f: 0.8999999761581421
      type: FLOAT
    }
  }
  node {
    input: "564"
    input: "556"
    output: "565"
    name: "Add_108"
    op_type: "Add"
  }
  node {
    input: "565"
    output: "566"
    name: "Relu_109"
    op_type: "Relu"
  }
  node {
    input: "566"
    input: "body.layer3.3.conv1.weight"
    output: "567"
    name: "Conv_110"
    op_type: "Conv"
    attribute {
      name: "dilations"
      ints: 1
      ints: 1
      type: INTS
    }
    attribute {
      name: "group"
      i: 1
      type: INT
    }
    attribute {
      name: "kernel_shape"
      ints: 1
      ints: 1
      type: INTS
    }
    attribute {
      name: "pads"
      ints: 0
      ints: 0
      ints: 0
      ints: 0
      type: INTS
    }
    attribute {
      name: "strides"
      ints: 1
      ints: 1
      type: INTS
    }
  }
  node {
    input: "567"
    input: "body.layer3.3.bn1.weight"
    input: "body.layer3.3.bn1.bias"
    input: "body.layer3.3.bn1.running_mean"
    input: "body.layer3.3.bn1.running_var"
    output: "568"
    name: "BatchNormalization_111"
    op_type: "BatchNormalization"
    attribute {
      name: "epsilon"
      f: 9.999999747378752e-06
      type: FLOAT
    }
    attribute {
      name: "momentum"
      f: 0.8999999761581421
      type: FLOAT
    }
  }
  node {
    input: "568"
    output: "569"
    name: "Relu_112"
    op_type: "Relu"
  }
  node {
    input: "569"
    input: "body.layer3.3.conv2.weight"
    output: "570"
    name: "Conv_113"
    op_type: "Conv"
    attribute {
      name: "dilations"
      ints: 1
      ints: 1
      type: INTS
    }
    attribute {
      name: "group"
      i: 1
      type: INT
    }
    attribute {
      name: "kernel_shape"
      ints: 3
      ints: 3
      type: INTS
    }
    attribute {
      name: "pads"
      ints: 1
      ints: 1
      ints: 1
      ints: 1
      type: INTS
    }
    attribute {
      name: "strides"
      ints: 1
      ints: 1
      type: INTS
    }
  }
  node {
    input: "570"
    input: "body.layer3.3.bn2.weight"
    input: "body.layer3.3.bn2.bias"
    input: "body.layer3.3.bn2.running_mean"
    input: "body.layer3.3.bn2.running_var"
    output: "571"
    name: "BatchNormalization_114"
    op_type: "BatchNormalization"
    attribute {
      name: "epsilon"
      f: 9.999999747378752e-06
      type: FLOAT
    }
    attribute {
      name: "momentum"
      f: 0.8999999761581421
      type: FLOAT
    }
  }
  node {
    input: "571"
    output: "572"
    name: "Relu_115"
    op_type: "Relu"
  }
  node {
    input: "572"
    input: "body.layer3.3.conv3.weight"
    output: "573"
    name: "Conv_116"
    op_type: "Conv"
    attribute {
      name: "dilations"
      ints: 1
      ints: 1
      type: INTS
    }
    attribute {
      name: "group"
      i: 1
      type: INT
    }
    attribute {
      name: "kernel_shape"
      ints: 1
      ints: 1
      type: INTS
    }
    attribute {
      name: "pads"
      ints: 0
      ints: 0
      ints: 0
      ints: 0
      type: INTS
    }
    attribute {
      name: "strides"
      ints: 1
      ints: 1
      type: INTS
    }
  }
  node {
    input: "573"
    input: "body.layer3.3.bn3.weight"
    input: "body.layer3.3.bn3.bias"
    input: "body.layer3.3.bn3.running_mean"
    input: "body.layer3.3.bn3.running_var"
    output: "574"
    name: "BatchNormalization_117"
    op_type: "BatchNormalization"
    attribute {
      name: "epsilon"
      f: 9.999999747378752e-06
      type: FLOAT
    }
    attribute {
      name: "momentum"
      f: 0.8999999761581421
      type: FLOAT
    }
  }
  node {
    input: "574"
    input: "566"
    output: "575"
    name: "Add_118"
    op_type: "Add"
  }
  node {
    input: "575"
    output: "576"
    name: "Relu_119"
    op_type: "Relu"
  }
  node {
    input: "576"
    input: "body.layer3.4.conv1.weight"
    output: "577"
    name: "Conv_120"
    op_type: "Conv"
    attribute {
      name: "dilations"
      ints: 1
      ints: 1
      type: INTS
    }
    attribute {
      name: "group"
      i: 1
      type: INT
    }
    attribute {
      name: "kernel_shape"
      ints: 1
      ints: 1
      type: INTS
    }
    attribute {
      name: "pads"
      ints: 0
      ints: 0
      ints: 0
      ints: 0
      type: INTS
    }
    attribute {
      name: "strides"
      ints: 1
      ints: 1
      type: INTS
    }
  }
  node {
    input: "577"
    input: "body.layer3.4.bn1.weight"
    input: "body.layer3.4.bn1.bias"
    input: "body.layer3.4.bn1.running_mean"
    input: "body.layer3.4.bn1.running_var"
    output: "578"
    name: "BatchNormalization_121"
    op_type: "BatchNormalization"
    attribute {
      name: "epsilon"
      f: 9.999999747378752e-06
      type: FLOAT
    }
    attribute {
      name: "momentum"
      f: 0.8999999761581421
      type: FLOAT
    }
  }
  node {
    input: "578"
    output: "579"
    name: "Relu_122"
    op_type: "Relu"
  }
  node {
    input: "579"
    input: "body.layer3.4.conv2.weight"
    output: "580"
    name: "Conv_123"
    op_type: "Conv"
    attribute {
      name: "dilations"
      ints: 1
      ints: 1
      type: INTS
    }
    attribute {
      name: "group"
      i: 1
      type: INT
    }
    attribute {
      name: "kernel_shape"
      ints: 3
      ints: 3
      type: INTS
    }
    attribute {
      name: "pads"
      ints: 1
      ints: 1
      ints: 1
      ints: 1
      type: INTS
    }
    attribute {
      name: "strides"
      ints: 1
      ints: 1
      type: INTS
    }
  }
  node {
    input: "580"
    input: "body.layer3.4.bn2.weight"
    input: "body.layer3.4.bn2.bias"
    input: "body.layer3.4.bn2.running_mean"
    input: "body.layer3.4.bn2.running_var"
    output: "581"
    name: "BatchNormalization_124"
    op_type: "BatchNormalization"
    attribute {
      name: "epsilon"
      f: 9.999999747378752e-06
      type: FLOAT
    }
    attribute {
      name: "momentum"
      f: 0.8999999761581421
      type: FLOAT
    }
  }
  node {
    input: "581"
    output: "582"
    name: "Relu_125"
    op_type: "Relu"
  }
  node {
    input: "582"
    input: "body.layer3.4.conv3.weight"
    output: "583"
    name: "Conv_126"
    op_type: "Conv"
    attribute {
      name: "dilations"
      ints: 1
      ints: 1
      type: INTS
    }
    attribute {
      name: "group"
      i: 1
      type: INT
    }
    attribute {
      name: "kernel_shape"
      ints: 1
      ints: 1
      type: INTS
    }
    attribute {
      name: "pads"
      ints: 0
      ints: 0
      ints: 0
      ints: 0
      type: INTS
    }
    attribute {
      name: "strides"
      ints: 1
      ints: 1
      type: INTS
    }
  }
  node {
    input: "583"
    input: "body.layer3.4.bn3.weight"
    input: "body.layer3.4.bn3.bias"
    input: "body.layer3.4.bn3.running_mean"
    input: "body.layer3.4.bn3.running_var"
    output: "584"
    name: "BatchNormalization_127"
    op_type: "BatchNormalization"
    attribute {
      name: "epsilon"
      f: 9.999999747378752e-06
      type: FLOAT
    }
    attribute {
      name: "momentum"
      f: 0.8999999761581421
      type: FLOAT
    }
  }
  node {
    input: "584"
    input: "576"
    output: "585"
    name: "Add_128"
    op_type: "Add"
  }
  node {
    input: "585"
    output: "586"
    name: "Relu_129"
    op_type: "Relu"
  }
  node {
    input: "586"
    input: "body.layer3.5.conv1.weight"
    output: "587"
    name: "Conv_130"
    op_type: "Conv"
    attribute {
      name: "dilations"
      ints: 1
      ints: 1
      type: INTS
    }
    attribute {
      name: "group"
      i: 1
      type: INT
    }
    attribute {
      name: "kernel_shape"
      ints: 1
      ints: 1
      type: INTS
    }
    attribute {
      name: "pads"
      ints: 0
      ints: 0
      ints: 0
      ints: 0
      type: INTS
    }
    attribute {
      name: "strides"
      ints: 1
      ints: 1
      type: INTS
    }
  }
  node {
    input: "587"
    input: "body.layer3.5.bn1.weight"
    input: "body.layer3.5.bn1.bias"
    input: "body.layer3.5.bn1.running_mean"
    input: "body.layer3.5.bn1.running_var"
    output: "588"
    name: "BatchNormalization_131"
    op_type: "BatchNormalization"
    attribute {
      name: "epsilon"
      f: 9.999999747378752e-06
      type: FLOAT
    }
    attribute {
      name: "momentum"
      f: 0.8999999761581421
      type: FLOAT
    }
  }
  node {
    input: "588"
    output: "589"
    name: "Relu_132"
    op_type: "Relu"
  }
  node {
    input: "589"
    input: "body.layer3.5.conv2.weight"
    output: "590"
    name: "Conv_133"
    op_type: "Conv"
    attribute {
      name: "dilations"
      ints: 1
      ints: 1
      type: INTS
    }
    attribute {
      name: "group"
      i: 1
      type: INT
    }
    attribute {
      name: "kernel_shape"
      ints: 3
      ints: 3
      type: INTS
    }
    attribute {
      name: "pads"
      ints: 1
      ints: 1
      ints: 1
      ints: 1
      type: INTS
    }
    attribute {
      name: "strides"
      ints: 1
      ints: 1
      type: INTS
    }
  }
  node {
    input: "590"
    input: "body.layer3.5.bn2.weight"
    input: "body.layer3.5.bn2.bias"
    input: "body.layer3.5.bn2.running_mean"
    input: "body.layer3.5.bn2.running_var"
    output: "591"
    name: "BatchNormalization_134"
    op_type: "BatchNormalization"
    attribute {
      name: "epsilon"
      f: 9.999999747378752e-06
      type: FLOAT
    }
    attribute {
      name: "momentum"
      f: 0.8999999761581421
      type: FLOAT
    }
  }
  node {
    input: "591"
    output: "592"
    name: "Relu_135"
    op_type: "Relu"
  }
  node {
    input: "592"
    input: "body.layer3.5.conv3.weight"
    output: "593"
    name: "Conv_136"
    op_type: "Conv"
    attribute {
      name: "dilations"
      ints: 1
      ints: 1
      type: INTS
    }
    attribute {
      name: "group"
      i: 1
      type: INT
    }
    attribute {
      name: "kernel_shape"
      ints: 1
      ints: 1
      type: INTS
    }
    attribute {
      name: "pads"
      ints: 0
      ints: 0
      ints: 0
      ints: 0
      type: INTS
    }
    attribute {
      name: "strides"
      ints: 1
      ints: 1
      type: INTS
    }
  }
  node {
    input: "593"
    input: "body.layer3.5.bn3.weight"
    input: "body.layer3.5.bn3.bias"
    input: "body.layer3.5.bn3.running_mean"
    input: "body.layer3.5.bn3.running_var"
    output: "594"
    name: "BatchNormalization_137"
    op_type: "BatchNormalization"
    attribute {
      name: "epsilon"
      f: 9.999999747378752e-06
      type: FLOAT
    }
    attribute {
      name: "momentum"
      f: 0.8999999761581421
      type: FLOAT
    }
  }
  node {
    input: "594"
    input: "586"
    output: "595"
    name: "Add_138"
    op_type: "Add"
  }
  node {
    input: "595"
    output: "596"
    name: "Relu_139"
    op_type: "Relu"
  }
  node {
    input: "596"
    input: "body.layer4.0.conv1.weight"
    output: "597"
    name: "Conv_140"
    op_type: "Conv"
    attribute {
      name: "dilations"
      ints: 1
      ints: 1
      type: INTS
    }
    attribute {
      name: "group"
      i: 1
      type: INT
    }
    attribute {
      name: "kernel_shape"
      ints: 1
      ints: 1
      type: INTS
    }
    attribute {
      name: "pads"
      ints: 0
      ints: 0
      ints: 0
      ints: 0
      type: INTS
    }
    attribute {
      name: "strides"
      ints: 1
      ints: 1
      type: INTS
    }
  }
  node {
    input: "597"
    input: "body.layer4.0.bn1.weight"
    input: "body.layer4.0.bn1.bias"
    input: "body.layer4.0.bn1.running_mean"
    input: "body.layer4.0.bn1.running_var"
    output: "598"
    name: "BatchNormalization_141"
    op_type: "BatchNormalization"
    attribute {
      name: "epsilon"
      f: 9.999999747378752e-06
      type: FLOAT
    }
    attribute {
      name: "momentum"
      f: 0.8999999761581421
      type: FLOAT
    }
  }
  node {
    input: "598"
    output: "599"
    name: "Relu_142"
    op_type: "Relu"
  }
  node {
    input: "599"
    input: "body.layer4.0.conv2.weight"
    output: "600"
    name: "Conv_143"
    op_type: "Conv"
    attribute {
      name: "dilations"
      ints: 1
      ints: 1
      type: INTS
    }
    attribute {
      name: "group"
      i: 1
      type: INT
    }
    attribute {
      name: "kernel_shape"
      ints: 3
      ints: 3
      type: INTS
    }
    attribute {
      name: "pads"
      ints: 1
      ints: 1
      ints: 1
      ints: 1
      type: INTS
    }
    attribute {
      name: "strides"
      ints: 2
      ints: 2
      type: INTS
    }
  }
  node {
    input: "600"
    input: "body.layer4.0.bn2.weight"
    input: "body.layer4.0.bn2.bias"
    input: "body.layer4.0.bn2.running_mean"
    input: "body.layer4.0.bn2.running_var"
    output: "601"
    name: "BatchNormalization_144"
    op_type: "BatchNormalization"
    attribute {
      name: "epsilon"
      f: 9.999999747378752e-06
      type: FLOAT
    }
    attribute {
      name: "momentum"
      f: 0.8999999761581421
      type: FLOAT
    }
  }
  node {
    input: "601"
    output: "602"
    name: "Relu_145"
    op_type: "Relu"
  }
  node {
    input: "602"
    input: "body.layer4.0.conv3.weight"
    output: "603"
    name: "Conv_146"
    op_type: "Conv"
    attribute {
      name: "dilations"
      ints: 1
      ints: 1
      type: INTS
    }
    attribute {
      name: "group"
      i: 1
      type: INT
    }
    attribute {
      name: "kernel_shape"
      ints: 1
      ints: 1
      type: INTS
    }
    attribute {
      name: "pads"
      ints: 0
      ints: 0
      ints: 0
      ints: 0
      type: INTS
    }
    attribute {
      name: "strides"
      ints: 1
      ints: 1
      type: INTS
    }
  }
  node {
    input: "603"
    input: "body.layer4.0.bn3.weight"
    input: "body.layer4.0.bn3.bias"
    input: "body.layer4.0.bn3.running_mean"
    input: "body.layer4.0.bn3.running_var"
    output: "604"
    name: "BatchNormalization_147"
    op_type: "BatchNormalization"
    attribute {
      name: "epsilon"
      f: 9.999999747378752e-06
      type: FLOAT
    }
    attribute {
      name: "momentum"
      f: 0.8999999761581421
      type: FLOAT
    }
  }
  node {
    input: "596"
    input: "body.layer4.0.downsample.0.weight"
    output: "605"
    name: "Conv_148"
    op_type: "Conv"
    attribute {
      name: "dilations"
      ints: 1
      ints: 1
      type: INTS
    }
    attribute {
      name: "group"
      i: 1
      type: INT
    }
    attribute {
      name: "kernel_shape"
      ints: 1
      ints: 1
      type: INTS
    }
    attribute {
      name: "pads"
      ints: 0
      ints: 0
      ints: 0
      ints: 0
      type: INTS
    }
    attribute {
      name: "strides"
      ints: 2
      ints: 2
      type: INTS
    }
  }
  node {
    input: "605"
    input: "body.layer4.0.downsample.1.weight"
    input: "body.layer4.0.downsample.1.bias"
    input: "body.layer4.0.downsample.1.running_mean"
    input: "body.layer4.0.downsample.1.running_var"
    output: "606"
    name: "BatchNormalization_149"
    op_type: "BatchNormalization"
    attribute {
      name: "epsilon"
      f: 9.999999747378752e-06
      type: FLOAT
    }
    attribute {
      name: "momentum"
      f: 0.8999999761581421
      type: FLOAT
    }
  }
  node {
    input: "604"
    input: "606"
    output: "607"
    name: "Add_150"
    op_type: "Add"
  }
  node {
    input: "607"
    output: "608"
    name: "Relu_151"
    op_type: "Relu"
  }
  node {
    input: "608"
    input: "body.layer4.1.conv1.weight"
    output: "609"
    name: "Conv_152"
    op_type: "Conv"
    attribute {
      name: "dilations"
      ints: 1
      ints: 1
      type: INTS
    }
    attribute {
      name: "group"
      i: 1
      type: INT
    }
    attribute {
      name: "kernel_shape"
      ints: 1
      ints: 1
      type: INTS
    }
    attribute {
      name: "pads"
      ints: 0
      ints: 0
      ints: 0
      ints: 0
      type: INTS
    }
    attribute {
      name: "strides"
      ints: 1
      ints: 1
      type: INTS
    }
  }
  node {
    input: "609"
    input: "body.layer4.1.bn1.weight"
    input: "body.layer4.1.bn1.bias"
    input: "body.layer4.1.bn1.running_mean"
    input: "body.layer4.1.bn1.running_var"
    output: "610"
    name: "BatchNormalization_153"
    op_type: "BatchNormalization"
    attribute {
      name: "epsilon"
      f: 9.999999747378752e-06
      type: FLOAT
    }
    attribute {
      name: "momentum"
      f: 0.8999999761581421
      type: FLOAT
    }
  }
  node {
    input: "610"
    output: "611"
    name: "Relu_154"
    op_type: "Relu"
  }
  node {
    input: "611"
    input: "body.layer4.1.conv2.weight"
    output: "612"
    name: "Conv_155"
    op_type: "Conv"
    attribute {
      name: "dilations"
      ints: 1
      ints: 1
      type: INTS
    }
    attribute {
      name: "group"
      i: 1
      type: INT
    }
    attribute {
      name: "kernel_shape"
      ints: 3
      ints: 3
      type: INTS
    }
    attribute {
      name: "pads"
      ints: 1
      ints: 1
      ints: 1
      ints: 1
      type: INTS
    }
    attribute {
      name: "strides"
      ints: 1
      ints: 1
      type: INTS
    }
  }
  node {
    input: "612"
    input: "body.layer4.1.bn2.weight"
    input: "body.layer4.1.bn2.bias"
    input: "body.layer4.1.bn2.running_mean"
    input: "body.layer4.1.bn2.running_var"
    output: "613"
    name: "BatchNormalization_156"
    op_type: "BatchNormalization"
    attribute {
      name: "epsilon"
      f: 9.999999747378752e-06
      type: FLOAT
    }
    attribute {
      name: "momentum"
      f: 0.8999999761581421
      type: FLOAT
    }
  }
  node {
    input: "613"
    output: "614"
    name: "Relu_157"
    op_type: "Relu"
  }
  node {
    input: "614"
    input: "body.layer4.1.conv3.weight"
    output: "615"
    name: "Conv_158"
    op_type: "Conv"
    attribute {
      name: "dilations"
      ints: 1
      ints: 1
      type: INTS
    }
    attribute {
      name: "group"
      i: 1
      type: INT
    }
    attribute {
      name: "kernel_shape"
      ints: 1
      ints: 1
      type: INTS
    }
    attribute {
      name: "pads"
      ints: 0
      ints: 0
      ints: 0
      ints: 0
      type: INTS
    }
    attribute {
      name: "strides"
      ints: 1
      ints: 1
      type: INTS
    }
  }
  node {
    input: "615"
    input: "body.layer4.1.bn3.weight"
    input: "body.layer4.1.bn3.bias"
    input: "body.layer4.1.bn3.running_mean"
    input: "body.layer4.1.bn3.running_var"
    output: "616"
    name: "BatchNormalization_159"
    op_type: "BatchNormalization"
    attribute {
      name: "epsilon"
      f: 9.999999747378752e-06
      type: FLOAT
    }
    attribute {
      name: "momentum"
      f: 0.8999999761581421
      type: FLOAT
    }
  }
  node {
    input: "616"
    input: "608"
    output: "617"
    name: "Add_160"
    op_type: "Add"
  }
  node {
    input: "617"
    output: "618"
    name: "Relu_161"
    op_type: "Relu"
  }
  node {
    input: "618"
    input: "body.layer4.2.conv1.weight"
    output: "619"
    name: "Conv_162"
    op_type: "Conv"
    attribute {
      name: "dilations"
      ints: 1
      ints: 1
      type: INTS
    }
    attribute {
      name: "group"
      i: 1
      type: INT
    }
    attribute {
      name: "kernel_shape"
      ints: 1
      ints: 1
      type: INTS
    }
    attribute {
      name: "pads"
      ints: 0
      ints: 0
      ints: 0
      ints: 0
      type: INTS
    }
    attribute {
      name: "strides"
      ints: 1
      ints: 1
      type: INTS
    }
  }
  node {
    input: "619"
    input: "body.layer4.2.bn1.weight"
    input: "body.layer4.2.bn1.bias"
    input: "body.layer4.2.bn1.running_mean"
    input: "body.layer4.2.bn1.running_var"
    output: "620"
    name: "BatchNormalization_163"
    op_type: "BatchNormalization"
    attribute {
      name: "epsilon"
      f: 9.999999747378752e-06
      type: FLOAT
    }
    attribute {
      name: "momentum"
      f: 0.8999999761581421
      type: FLOAT
    }
  }
  node {
    input: "620"
    output: "621"
    name: "Relu_164"
    op_type: "Relu"
  }
  node {
    input: "621"
    input: "body.layer4.2.conv2.weight"
    output: "622"
    name: "Conv_165"
    op_type: "Conv"
    attribute {
      name: "dilations"
      ints: 1
      ints: 1
      type: INTS
    }
    attribute {
      name: "group"
      i: 1
      type: INT
    }
    attribute {
      name: "kernel_shape"
      ints: 3
      ints: 3
      type: INTS
    }
    attribute {
      name: "pads"
      ints: 1
      ints: 1
      ints: 1
      ints: 1
      type: INTS
    }
    attribute {
      name: "strides"
      ints: 1
      ints: 1
      type: INTS
    }
  }
  node {
    input: "622"
    input: "body.layer4.2.bn2.weight"
    input: "body.layer4.2.bn2.bias"
    input: "body.layer4.2.bn2.running_mean"
    input: "body.layer4.2.bn2.running_var"
    output: "623"
    name: "BatchNormalization_166"
    op_type: "BatchNormalization"
    attribute {
      name: "epsilon"
      f: 9.999999747378752e-06
      type: FLOAT
    }
    attribute {
      name: "momentum"
      f: 0.8999999761581421
      type: FLOAT
    }
  }
  node {
    input: "623"
    output: "624"
    name: "Relu_167"
    op_type: "Relu"
  }
  node {
    input: "624"
    input: "body.layer4.2.conv3.weight"
    output: "625"
    name: "Conv_168"
    op_type: "Conv"
    attribute {
      name: "dilations"
      ints: 1
      ints: 1
      type: INTS
    }
    attribute {
      name: "group"
      i: 1
      type: INT
    }
    attribute {
      name: "kernel_shape"
      ints: 1
      ints: 1
      type: INTS
    }
    attribute {
      name: "pads"
      ints: 0
      ints: 0
      ints: 0
      ints: 0
      type: INTS
    }
    attribute {
      name: "strides"
      ints: 1
      ints: 1
      type: INTS
    }
  }
  node {
    input: "625"
    input: "body.layer4.2.bn3.weight"
    input: "body.layer4.2.bn3.bias"
    input: "body.layer4.2.bn3.running_mean"
    input: "body.layer4.2.bn3.running_var"
    output: "626"
    name: "BatchNormalization_169"
    op_type: "BatchNormalization"
    attribute {
      name: "epsilon"
      f: 9.999999747378752e-06
      type: FLOAT
    }
    attribute {
      name: "momentum"
      f: 0.8999999761581421
      type: FLOAT
    }
  }
  node {
    input: "626"
    input: "618"
    output: "627"
    name: "Add_170"
    op_type: "Add"
  }
  node {
    input: "627"
    output: "628"
    name: "Relu_171"
    op_type: "Relu"
  }
  node {
    input: "534"
    input: "fpn.output1.0.weight"
    output: "629"
    name: "Conv_172"
    op_type: "Conv"
    attribute {
      name: "dilations"
      ints: 1
      ints: 1
      type: INTS
    }
    attribute {
      name: "group"
      i: 1
      type: INT
    }
    attribute {
      name: "kernel_shape"
      ints: 1
      ints: 1
      type: INTS
    }
    attribute {
      name: "pads"
      ints: 0
      ints: 0
      ints: 0
      ints: 0
      type: INTS
    }
    attribute {
      name: "strides"
      ints: 1
      ints: 1
      type: INTS
    }
  }
  node {
    input: "629"
    input: "fpn.output1.1.weight"
    input: "fpn.output1.1.bias"
    input: "fpn.output1.1.running_mean"
    input: "fpn.output1.1.running_var"
    output: "630"
    name: "BatchNormalization_173"
    op_type: "BatchNormalization"
    attribute {
      name: "epsilon"
      f: 9.999999747378752e-06
      type: FLOAT
    }
    attribute {
      name: "momentum"
      f: 0.8999999761581421
      type: FLOAT
    }
  }
  node {
    input: "630"
    output: "631"
    name: "LeakyRelu_174"
    op_type: "LeakyRelu"
    attribute {
      name: "alpha"
      f: 0.0
      type: FLOAT
    }
  }
  node {
    input: "596"
    input: "fpn.output2.0.weight"
    output: "632"
    name: "Conv_175"
    op_type: "Conv"
    attribute {
      name: "dilations"
      ints: 1
      ints: 1
      type: INTS
    }
    attribute {
      name: "group"
      i: 1
      type: INT
    }
    attribute {
      name: "kernel_shape"
      ints: 1
      ints: 1
      type: INTS
    }
    attribute {
      name: "pads"
      ints: 0
      ints: 0
      ints: 0
      ints: 0
      type: INTS
    }
    attribute {
      name: "strides"
      ints: 1
      ints: 1
      type: INTS
    }
  }
  node {
    input: "632"
    input: "fpn.output2.1.weight"
    input: "fpn.output2.1.bias"
    input: "fpn.output2.1.running_mean"
    input: "fpn.output2.1.running_var"
    output: "633"
    name: "BatchNormalization_176"
    op_type: "BatchNormalization"
    attribute {
      name: "epsilon"
      f: 9.999999747378752e-06
      type: FLOAT
    }
    attribute {
      name: "momentum"
      f: 0.8999999761581421
      type: FLOAT
    }
  }
  node {
    input: "633"
    output: "634"
    name: "LeakyRelu_177"
    op_type: "LeakyRelu"
    attribute {
      name: "alpha"
      f: 0.0
      type: FLOAT
    }
  }
  node {
    input: "628"
    input: "fpn.output3.0.weight"
    output: "635"
    name: "Conv_178"
    op_type: "Conv"
    attribute {
      name: "dilations"
      ints: 1
      ints: 1
      type: INTS
    }
    attribute {
      name: "group"
      i: 1
      type: INT
    }
    attribute {
      name: "kernel_shape"
      ints: 1
      ints: 1
      type: INTS
    }
    attribute {
      name: "pads"
      ints: 0
      ints: 0
      ints: 0
      ints: 0
      type: INTS
    }
    attribute {
      name: "strides"
      ints: 1
      ints: 1
      type: INTS
    }
  }
  node {
    input: "635"
    input: "fpn.output3.1.weight"
    input: "fpn.output3.1.bias"
    input: "fpn.output3.1.running_mean"
    input: "fpn.output3.1.running_var"
    output: "636"
    name: "BatchNormalization_179"
    op_type: "BatchNormalization"
    attribute {
      name: "epsilon"
      f: 9.999999747378752e-06
      type: FLOAT
    }
    attribute {
      name: "momentum"
      f: 0.8999999761581421
      type: FLOAT
    }
  }
  node {
    input: "636"
    output: "637"
    name: "LeakyRelu_180"
    op_type: "LeakyRelu"
    attribute {
      name: "alpha"
      f: 0.0
      type: FLOAT
    }
  }
  node {
    input: "634"
    output: "638"
    name: "Shape_181"
    op_type: "Shape"
  }
  node {
    output: "639"
    name: "Constant_182"
    op_type: "Constant"
    attribute {
      name: "value"
      t {
        data_type: 7
      }
      type: TENSOR
    }
  }
  node {
    input: "638"
    input: "639"
    output: "640"
    name: "Gather_183"
    op_type: "Gather"
    attribute {
      name: "axis"
      i: 0
      type: INT
    }
  }
  node {
    input: "634"
    output: "641"
    name: "Shape_184"
    op_type: "Shape"
  }
  node {
    output: "642"
    name: "Constant_185"
    op_type: "Constant"
    attribute {
      name: "value"
      t {
        data_type: 7
      }
      type: TENSOR
    }
  }
  node {
    input: "641"
    input: "642"
    output: "643"
    name: "Gather_186"
    op_type: "Gather"
    attribute {
      name: "axis"
      i: 0
      type: INT
    }
  }
  node {
    input: "640"
    output: "644"
    name: "Unsqueeze_187"
    op_type: "Unsqueeze"
    attribute {
      name: "axes"
      ints: 0
      type: INTS
    }
  }
  node {
    input: "643"
    output: "645"
    name: "Unsqueeze_188"
    op_type: "Unsqueeze"
    attribute {
      name: "axes"
      ints: 0
      type: INTS
    }
  }
  node {
    input: "644"
    input: "645"
    output: "646"
    name: "Concat_189"
    op_type: "Concat"
    attribute {
      name: "axis"
      i: 0
      type: INT
    }
  }
  node {
    output: "647"
    name: "Constant_190"
    op_type: "Constant"
    attribute {
      name: "value"
      t {
        dims: 0
        data_type: 1
      }
      type: TENSOR
    }
  }
  node {
    input: "637"
    output: "648"
    name: "Shape_191"
    op_type: "Shape"
  }
  node {
    output: "649"
    name: "Constant_192"
    op_type: "Constant"
    attribute {
      name: "value"
      t {
        dims: 1
        data_type: 7
      }
      type: TENSOR
    }
  }
  node {
    output: "650"
    name: "Constant_193"
    op_type: "Constant"
    attribute {
      name: "value"
      t {
        dims: 1
        data_type: 7
      }
      type: TENSOR
    }
  }
  node {
    output: "651"
    name: "Constant_194"
    op_type: "Constant"
    attribute {
      name: "value"
      t {
        dims: 1
        data_type: 7
      }
      type: TENSOR
    }
  }
  node {
    input: "648"
    input: "650"
    input: "651"
    input: "649"
    output: "652"
    name: "Slice_195"
    op_type: "Slice"
  }
  node {
    input: "646"
    output: "653"
    name: "Cast_196"
    op_type: "Cast"
    attribute {
      name: "to"
      i: 7
      type: INT
    }
  }
  node {
    input: "652"
    input: "653"
    output: "654"
    name: "Concat_197"
    op_type: "Concat"
    attribute {
      name: "axis"
      i: 0
      type: INT
    }
  }
  node {
    output: "655"
    name: "Constant_198"
    op_type: "Constant"
    attribute {
      name: "value"
      t {
        dims: 0
        data_type: 1
      }
      type: TENSOR
    }
  }
  node {
    input: "637"
    input: "647"
    input: "655"
    input: "654"
    output: "656"
    name: "Resize_199"
    op_type: "Resize"
    attribute {
      name: "coordinate_transformation_mode"
      s: "asymmetric"
      type: STRING
    }
    attribute {
      name: "cubic_coeff_a"
      f: -0.75
      type: FLOAT
    }
    attribute {
      name: "mode"
      s: "nearest"
      type: STRING
    }
    attribute {
      name: "nearest_mode"
      s: "floor"
      type: STRING
    }
  }
  node {
    input: "634"
    input: "656"
    output: "657"
    name: "Add_200"
    op_type: "Add"
  }
  node {
    input: "657"
    input: "fpn.merge2.0.weight"
    output: "658"
    name: "Conv_201"
    op_type: "Conv"
    attribute {
      name: "dilations"
      ints: 1
      ints: 1
      type: INTS
    }
    attribute {
      name: "group"
      i: 1
      type: INT
    }
    attribute {
      name: "kernel_shape"
      ints: 3
      ints: 3
      type: INTS
    }
    attribute {
      name: "pads"
      ints: 1
      ints: 1
      ints: 1
      ints: 1
      type: INTS
    }
    attribute {
      name: "strides"
      ints: 1
      ints: 1
      type: INTS
    }
  }
  node {
    input: "658"
    input: "fpn.merge2.1.weight"
    input: "fpn.merge2.1.bias"
    input: "fpn.merge2.1.running_mean"
    input: "fpn.merge2.1.running_var"
    output: "659"
    name: "BatchNormalization_202"
    op_type: "BatchNormalization"
    attribute {
      name: "epsilon"
      f: 9.999999747378752e-06
      type: FLOAT
    }
    attribute {
      name: "momentum"
      f: 0.8999999761581421
      type: FLOAT
    }
  }
  node {
    input: "659"
    output: "660"
    name: "LeakyRelu_203"
    op_type: "LeakyRelu"
    attribute {
      name: "alpha"
      f: 0.0
      type: FLOAT
    }
  }
  node {
    input: "631"
    output: "661"
    name: "Shape_204"
    op_type: "Shape"
  }
  node {
    output: "662"
    name: "Constant_205"
    op_type: "Constant"
    attribute {
      name: "value"
      t {
        data_type: 7
      }
      type: TENSOR
    }
  }
  node {
    input: "661"
    input: "662"
    output: "663"
    name: "Gather_206"
    op_type: "Gather"
    attribute {
      name: "axis"
      i: 0
      type: INT
    }
  }
  node {
    input: "631"
    output: "664"
    name: "Shape_207"
    op_type: "Shape"
  }
  node {
    output: "665"
    name: "Constant_208"
    op_type: "Constant"
    attribute {
      name: "value"
      t {
        data_type: 7
      }
      type: TENSOR
    }
  }
  node {
    input: "664"
    input: "665"
    output: "666"
    name: "Gather_209"
    op_type: "Gather"
    attribute {
      name: "axis"
      i: 0
      type: INT
    }
  }
  node {
    input: "663"
    output: "667"
    name: "Unsqueeze_210"
    op_type: "Unsqueeze"
    attribute {
      name: "axes"
      ints: 0
      type: INTS
    }
  }
  node {
    input: "666"
    output: "668"
    name: "Unsqueeze_211"
    op_type: "Unsqueeze"
    attribute {
      name: "axes"
      ints: 0
      type: INTS
    }
  }
  node {
    input: "667"
    input: "668"
    output: "669"
    name: "Concat_212"
    op_type: "Concat"
    attribute {
      name: "axis"
      i: 0
      type: INT
    }
  }
  node {
    output: "670"
    name: "Constant_213"
    op_type: "Constant"
    attribute {
      name: "value"
      t {
        dims: 0
        data_type: 1
      }
      type: TENSOR
    }
  }
  node {
    input: "660"
    output: "671"
    name: "Shape_214"
    op_type: "Shape"
  }
  node {
    output: "672"
    name: "Constant_215"
    op_type: "Constant"
    attribute {
      name: "value"
      t {
        dims: 1
        data_type: 7
      }
      type: TENSOR
    }
  }
  node {
    output: "673"
    name: "Constant_216"
    op_type: "Constant"
    attribute {
      name: "value"
      t {
        dims: 1
        data_type: 7
      }
      type: TENSOR
    }
  }
  node {
    output: "674"
    name: "Constant_217"
    op_type: "Constant"
    attribute {
      name: "value"
      t {
        dims: 1
        data_type: 7
      }
      type: TENSOR
    }
  }
  node {
    input: "671"
    input: "673"
    input: "674"
    input: "672"
    output: "675"
    name: "Slice_218"
    op_type: "Slice"
  }
  node {
    input: "669"
    output: "676"
    name: "Cast_219"
    op_type: "Cast"
    attribute {
      name: "to"
      i: 7
      type: INT
    }
  }
  node {
    input: "675"
    input: "676"
    output: "677"
    name: "Concat_220"
    op_type: "Concat"
    attribute {
      name: "axis"
      i: 0
      type: INT
    }
  }
  node {
    output: "678"
    name: "Constant_221"
    op_type: "Constant"
    attribute {
      name: "value"
      t {
        dims: 0
        data_type: 1
      }
      type: TENSOR
    }
  }
  node {
    input: "660"
    input: "670"
    input: "678"
    input: "677"
    output: "679"
    name: "Resize_222"
    op_type: "Resize"
    attribute {
      name: "coordinate_transformation_mode"
      s: "asymmetric"
      type: STRING
    }
    attribute {
      name: "cubic_coeff_a"
      f: -0.75
      type: FLOAT
    }
    attribute {
      name: "mode"
      s: "nearest"
      type: STRING
    }
    attribute {
      name: "nearest_mode"
      s: "floor"
      type: STRING
    }
  }
  node {
    input: "631"
    input: "679"
    output: "680"
    name: "Add_223"
    op_type: "Add"
  }
  node {
    input: "680"
    input: "fpn.merge1.0.weight"
    output: "681"
    name: "Conv_224"
    op_type: "Conv"
    attribute {
      name: "dilations"
      ints: 1
      ints: 1
      type: INTS
    }
    attribute {
      name: "group"
      i: 1
      type: INT
    }
    attribute {
      name: "kernel_shape"
      ints: 3
      ints: 3
      type: INTS
    }
    attribute {
      name: "pads"
      ints: 1
      ints: 1
      ints: 1
      ints: 1
      type: INTS
    }
    attribute {
      name: "strides"
      ints: 1
      ints: 1
      type: INTS
    }
  }
  node {
    input: "681"
    input: "fpn.merge1.1.weight"
    input: "fpn.merge1.1.bias"
    input: "fpn.merge1.1.running_mean"
    input: "fpn.merge1.1.running_var"
    output: "682"
    name: "BatchNormalization_225"
    op_type: "BatchNormalization"
    attribute {
      name: "epsilon"
      f: 9.999999747378752e-06
      type: FLOAT
    }
    attribute {
      name: "momentum"
      f: 0.8999999761581421
      type: FLOAT
    }
  }
  node {
    input: "682"
    output: "683"
    name: "LeakyRelu_226"
    op_type: "LeakyRelu"
    attribute {
      name: "alpha"
      f: 0.0
      type: FLOAT
    }
  }
  node {
    input: "683"
    input: "ssh1.conv3X3.0.weight"
    output: "684"
    name: "Conv_227"
    op_type: "Conv"
    attribute {
      name: "dilations"
      ints: 1
      ints: 1
      type: INTS
    }
    attribute {
      name: "group"
      i: 1
      type: INT
    }
    attribute {
      name: "kernel_shape"
      ints: 3
      ints: 3
      type: INTS
    }
    attribute {
      name: "pads"
      ints: 1
      ints: 1
      ints: 1
      ints: 1
      type: INTS
    }
    attribute {
      name: "strides"
      ints: 1
      ints: 1
      type: INTS
    }
  }
  node {
    input: "684"
    input: "ssh1.conv3X3.1.weight"
    input: "ssh1.conv3X3.1.bias"
    input: "ssh1.conv3X3.1.running_mean"
    input: "ssh1.conv3X3.1.running_var"
    output: "685"
    name: "BatchNormalization_228"
    op_type: "BatchNormalization"
    attribute {
      name: "epsilon"
      f: 9.999999747378752e-06
      type: FLOAT
    }
    attribute {
      name: "momentum"
      f: 0.8999999761581421
      type: FLOAT
    }
  }
  node {
    input: "683"
    input: "ssh1.conv5X5_1.0.weight"
    output: "686"
    name: "Conv_229"
    op_type: "Conv"
    attribute {
      name: "dilations"
      ints: 1
      ints: 1
      type: INTS
    }
    attribute {
      name: "group"
      i: 1
      type: INT
    }
    attribute {
      name: "kernel_shape"
      ints: 3
      ints: 3
      type: INTS
    }
    attribute {
      name: "pads"
      ints: 1
      ints: 1
      ints: 1
      ints: 1
      type: INTS
    }
    attribute {
      name: "strides"
      ints: 1
      ints: 1
      type: INTS
    }
  }
  node {
    input: "686"
    input: "ssh1.conv5X5_1.1.weight"
    input: "ssh1.conv5X5_1.1.bias"
    input: "ssh1.conv5X5_1.1.running_mean"
    input: "ssh1.conv5X5_1.1.running_var"
    output: "687"
    name: "BatchNormalization_230"
    op_type: "BatchNormalization"
    attribute {
      name: "epsilon"
      f: 9.999999747378752e-06
      type: FLOAT
    }
    attribute {
      name: "momentum"
      f: 0.8999999761581421
      type: FLOAT
    }
  }
  node {
    input: "687"
    output: "688"
    name: "LeakyRelu_231"
    op_type: "LeakyRelu"
    attribute {
      name: "alpha"
      f: 0.0
      type: FLOAT
    }
  }
  node {
    input: "688"
    input: "ssh1.conv5X5_2.0.weight"
    output: "689"
    name: "Conv_232"
    op_type: "Conv"
    attribute {
      name: "dilations"
      ints: 1
      ints: 1
      type: INTS
    }
    attribute {
      name: "group"
      i: 1
      type: INT
    }
    attribute {
      name: "kernel_shape"
      ints: 3
      ints: 3
      type: INTS
    }
    attribute {
      name: "pads"
      ints: 1
      ints: 1
      ints: 1
      ints: 1
      type: INTS
    }
    attribute {
      name: "strides"
      ints: 1
      ints: 1
      type: INTS
    }
  }
  node {
    input: "689"
    input: "ssh1.conv5X5_2.1.weight"
    input: "ssh1.conv5X5_2.1.bias"
    input: "ssh1.conv5X5_2.1.running_mean"
    input: "ssh1.conv5X5_2.1.running_var"
    output: "690"
    name: "BatchNormalization_233"
    op_type: "BatchNormalization"
    attribute {
      name: "epsilon"
      f: 9.999999747378752e-06
      type: FLOAT
    }
    attribute {
      name: "momentum"
      f: 0.8999999761581421
      type: FLOAT
    }
  }
  node {
    input: "688"
    input: "ssh1.conv7X7_2.0.weight"
    output: "691"
    name: "Conv_234"
    op_type: "Conv"
    attribute {
      name: "dilations"
      ints: 1
      ints: 1
      type: INTS
    }
    attribute {
      name: "group"
      i: 1
      type: INT
    }
    attribute {
      name: "kernel_shape"
      ints: 3
      ints: 3
      type: INTS
    }
    attribute {
      name: "pads"
      ints: 1
      ints: 1
      ints: 1
      ints: 1
      type: INTS
    }
    attribute {
      name: "strides"
      ints: 1
      ints: 1
      type: INTS
    }
  }
  node {
    input: "691"
    input: "ssh1.conv7X7_2.1.weight"
    input: "ssh1.conv7X7_2.1.bias"
    input: "ssh1.conv7X7_2.1.running_mean"
    input: "ssh1.conv7X7_2.1.running_var"
    output: "692"
    name: "BatchNormalization_235"
    op_type: "BatchNormalization"
    attribute {
      name: "epsilon"
      f: 9.999999747378752e-06
      type: FLOAT
    }
    attribute {
      name: "momentum"
      f: 0.8999999761581421
      type: FLOAT
    }
  }
  node {
    input: "692"
    output: "693"
    name: "LeakyRelu_236"
    op_type: "LeakyRelu"
    attribute {
      name: "alpha"
      f: 0.0
      type: FLOAT
    }
  }
  node {
    input: "693"
    input: "ssh1.conv7x7_3.0.weight"
    output: "694"
    name: "Conv_237"
    op_type: "Conv"
    attribute {
      name: "dilations"
      ints: 1
      ints: 1
      type: INTS
    }
    attribute {
      name: "group"
      i: 1
      type: INT
    }
    attribute {
      name: "kernel_shape"
      ints: 3
      ints: 3
      type: INTS
    }
    attribute {
      name: "pads"
      ints: 1
      ints: 1
      ints: 1
      ints: 1
      type: INTS
    }
    attribute {
      name: "strides"
      ints: 1
      ints: 1
      type: INTS
    }
  }
  node {
    input: "694"
    input: "ssh1.conv7x7_3.1.weight"
    input: "ssh1.conv7x7_3.1.bias"
    input: "ssh1.conv7x7_3.1.running_mean"
    input: "ssh1.conv7x7_3.1.running_var"
    output: "695"
    name: "BatchNormalization_238"
    op_type: "BatchNormalization"
    attribute {
      name: "epsilon"
      f: 9.999999747378752e-06
      type: FLOAT
    }
    attribute {
      name: "momentum"
      f: 0.8999999761581421
      type: FLOAT
    }
  }
  node {
    input: "685"
    input: "690"
    input: "695"
    output: "696"
    name: "Concat_239"
    op_type: "Concat"
    attribute {
      name: "axis"
      i: 1
      type: INT
    }
  }
  node {
    input: "696"
    output: "697"
    name: "Relu_240"
    op_type: "Relu"
  }
  node {
    input: "660"
    input: "ssh2.conv3X3.0.weight"
    output: "698"
    name: "Conv_241"
    op_type: "Conv"
    attribute {
      name: "dilations"
      ints: 1
      ints: 1
      type: INTS
    }
    attribute {
      name: "group"
      i: 1
      type: INT
    }
    attribute {
      name: "kernel_shape"
      ints: 3
      ints: 3
      type: INTS
    }
    attribute {
      name: "pads"
      ints: 1
      ints: 1
      ints: 1
      ints: 1
      type: INTS
    }
    attribute {
      name: "strides"
      ints: 1
      ints: 1
      type: INTS
    }
  }
  node {
    input: "698"
    input: "ssh2.conv3X3.1.weight"
    input: "ssh2.conv3X3.1.bias"
    input: "ssh2.conv3X3.1.running_mean"
    input: "ssh2.conv3X3.1.running_var"
    output: "699"
    name: "BatchNormalization_242"
    op_type: "BatchNormalization"
    attribute {
      name: "epsilon"
      f: 9.999999747378752e-06
      type: FLOAT
    }
    attribute {
      name: "momentum"
      f: 0.8999999761581421
      type: FLOAT
    }
  }
  node {
    input: "660"
    input: "ssh2.conv5X5_1.0.weight"
    output: "700"
    name: "Conv_243"
    op_type: "Conv"
    attribute {
      name: "dilations"
      ints: 1
      ints: 1
      type: INTS
    }
    attribute {
      name: "group"
      i: 1
      type: INT
    }
    attribute {
      name: "kernel_shape"
      ints: 3
      ints: 3
      type: INTS
    }
    attribute {
      name: "pads"
      ints: 1
      ints: 1
      ints: 1
      ints: 1
      type: INTS
    }
    attribute {
      name: "strides"
      ints: 1
      ints: 1
      type: INTS
    }
  }
  node {
    input: "700"
    input: "ssh2.conv5X5_1.1.weight"
    input: "ssh2.conv5X5_1.1.bias"
    input: "ssh2.conv5X5_1.1.running_mean"
    input: "ssh2.conv5X5_1.1.running_var"
    output: "701"
    name: "BatchNormalization_244"
    op_type: "BatchNormalization"
    attribute {
      name: "epsilon"
      f: 9.999999747378752e-06
      type: FLOAT
    }
    attribute {
      name: "momentum"
      f: 0.8999999761581421
      type: FLOAT
    }
  }
  node {
    input: "701"
    output: "702"
    name: "LeakyRelu_245"
    op_type: "LeakyRelu"
    attribute {
      name: "alpha"
      f: 0.0
      type: FLOAT
    }
  }
  node {
    input: "702"
    input: "ssh2.conv5X5_2.0.weight"
    output: "703"
    name: "Conv_246"
    op_type: "Conv"
    attribute {
      name: "dilations"
      ints: 1
      ints: 1
      type: INTS
    }
    attribute {
      name: "group"
      i: 1
      type: INT
    }
    attribute {
      name: "kernel_shape"
      ints: 3
      ints: 3
      type: INTS
    }
    attribute {
      name: "pads"
      ints: 1
      ints: 1
      ints: 1
      ints: 1
      type: INTS
    }
    attribute {
      name: "strides"
      ints: 1
      ints: 1
      type: INTS
    }
  }
  node {
    input: "703"
    input: "ssh2.conv5X5_2.1.weight"
    input: "ssh2.conv5X5_2.1.bias"
    input: "ssh2.conv5X5_2.1.running_mean"
    input: "ssh2.conv5X5_2.1.running_var"
    output: "704"
    name: "BatchNormalization_247"
    op_type: "BatchNormalization"
    attribute {
      name: "epsilon"
      f: 9.999999747378752e-06
      type: FLOAT
    }
    attribute {
      name: "momentum"
      f: 0.8999999761581421
      type: FLOAT
    }
  }
  node {
    input: "702"
    input: "ssh2.conv7X7_2.0.weight"
    output: "705"
    name: "Conv_248"
    op_type: "Conv"
    attribute {
      name: "dilations"
      ints: 1
      ints: 1
      type: INTS
    }
    attribute {
      name: "group"
      i: 1
      type: INT
    }
    attribute {
      name: "kernel_shape"
      ints: 3
      ints: 3
      type: INTS
    }
    attribute {
      name: "pads"
      ints: 1
      ints: 1
      ints: 1
      ints: 1
      type: INTS
    }
    attribute {
      name: "strides"
      ints: 1
      ints: 1
      type: INTS
    }
  }
  node {
    input: "705"
    input: "ssh2.conv7X7_2.1.weight"
    input: "ssh2.conv7X7_2.1.bias"
    input: "ssh2.conv7X7_2.1.running_mean"
    input: "ssh2.conv7X7_2.1.running_var"
    output: "706"
    name: "BatchNormalization_249"
    op_type: "BatchNormalization"
    attribute {
      name: "epsilon"
      f: 9.999999747378752e-06
      type: FLOAT
    }
    attribute {
      name: "momentum"
      f: 0.8999999761581421
      type: FLOAT
    }
  }
  node {
    input: "706"
    output: "707"
    name: "LeakyRelu_250"
    op_type: "LeakyRelu"
    attribute {
      name: "alpha"
      f: 0.0
      type: FLOAT
    }
  }
  node {
    input: "707"
    input: "ssh2.conv7x7_3.0.weight"
    output: "708"
    name: "Conv_251"
    op_type: "Conv"
    attribute {
      name: "dilations"
      ints: 1
      ints: 1
      type: INTS
    }
    attribute {
      name: "group"
      i: 1
      type: INT
    }
    attribute {
      name: "kernel_shape"
      ints: 3
      ints: 3
      type: INTS
    }
    attribute {
      name: "pads"
      ints: 1
      ints: 1
      ints: 1
      ints: 1
      type: INTS
    }
    attribute {
      name: "strides"
      ints: 1
      ints: 1
      type: INTS
    }
  }
  node {
    input: "708"
    input: "ssh2.conv7x7_3.1.weight"
    input: "ssh2.conv7x7_3.1.bias"
    input: "ssh2.conv7x7_3.1.running_mean"
    input: "ssh2.conv7x7_3.1.running_var"
    output: "709"
    name: "BatchNormalization_252"
    op_type: "BatchNormalization"
    attribute {
      name: "epsilon"
      f: 9.999999747378752e-06
      type: FLOAT
    }
    attribute {
      name: "momentum"
      f: 0.8999999761581421
      type: FLOAT
    }
  }
  node {
    input: "699"
    input: "704"
    input: "709"
    output: "710"
    name: "Concat_253"
    op_type: "Concat"
    attribute {
      name: "axis"
      i: 1
      type: INT
    }
  }
  node {
    input: "710"
    output: "711"
    name: "Relu_254"
    op_type: "Relu"
  }
  node {
    input: "637"
    input: "ssh3.conv3X3.0.weight"
    output: "712"
    name: "Conv_255"
    op_type: "Conv"
    attribute {
      name: "dilations"
      ints: 1
      ints: 1
      type: INTS
    }
    attribute {
      name: "group"
      i: 1
      type: INT
    }
    attribute {
      name: "kernel_shape"
      ints: 3
      ints: 3
      type: INTS
    }
    attribute {
      name: "pads"
      ints: 1
      ints: 1
      ints: 1
      ints: 1
      type: INTS
    }
    attribute {
      name: "strides"
      ints: 1
      ints: 1
      type: INTS
    }
  }
  node {
    input: "712"
    input: "ssh3.conv3X3.1.weight"
    input: "ssh3.conv3X3.1.bias"
    input: "ssh3.conv3X3.1.running_mean"
    input: "ssh3.conv3X3.1.running_var"
    output: "713"
    name: "BatchNormalization_256"
    op_type: "BatchNormalization"
    attribute {
      name: "epsilon"
      f: 9.999999747378752e-06
      type: FLOAT
    }
    attribute {
      name: "momentum"
      f: 0.8999999761581421
      type: FLOAT
    }
  }
  node {
    input: "637"
    input: "ssh3.conv5X5_1.0.weight"
    output: "714"
    name: "Conv_257"
    op_type: "Conv"
    attribute {
      name: "dilations"
      ints: 1
      ints: 1
      type: INTS
    }
    attribute {
      name: "group"
      i: 1
      type: INT
    }
    attribute {
      name: "kernel_shape"
      ints: 3
      ints: 3
      type: INTS
    }
    attribute {
      name: "pads"
      ints: 1
      ints: 1
      ints: 1
      ints: 1
      type: INTS
    }
    attribute {
      name: "strides"
      ints: 1
      ints: 1
      type: INTS
    }
  }
  node {
    input: "714"
    input: "ssh3.conv5X5_1.1.weight"
    input: "ssh3.conv5X5_1.1.bias"
    input: "ssh3.conv5X5_1.1.running_mean"
    input: "ssh3.conv5X5_1.1.running_var"
    output: "715"
    name: "BatchNormalization_258"
    op_type: "BatchNormalization"
    attribute {
      name: "epsilon"
      f: 9.999999747378752e-06
      type: FLOAT
    }
    attribute {
      name: "momentum"
      f: 0.8999999761581421
      type: FLOAT
    }
  }
  node {
    input: "715"
    output: "716"
    name: "LeakyRelu_259"
    op_type: "LeakyRelu"
    attribute {
      name: "alpha"
      f: 0.0
      type: FLOAT
    }
  }
  node {
    input: "716"
    input: "ssh3.conv5X5_2.0.weight"
    output: "717"
    name: "Conv_260"
    op_type: "Conv"
    attribute {
      name: "dilations"
      ints: 1
      ints: 1
      type: INTS
    }
    attribute {
      name: "group"
      i: 1
      type: INT
    }
    attribute {
      name: "kernel_shape"
      ints: 3
      ints: 3
      type: INTS
    }
    attribute {
      name: "pads"
      ints: 1
      ints: 1
      ints: 1
      ints: 1
      type: INTS
    }
    attribute {
      name: "strides"
      ints: 1
      ints: 1
      type: INTS
    }
  }
  node {
    input: "717"
    input: "ssh3.conv5X5_2.1.weight"
    input: "ssh3.conv5X5_2.1.bias"
    input: "ssh3.conv5X5_2.1.running_mean"
    input: "ssh3.conv5X5_2.1.running_var"
    output: "718"
    name: "BatchNormalization_261"
    op_type: "BatchNormalization"
    attribute {
      name: "epsilon"
      f: 9.999999747378752e-06
      type: FLOAT
    }
    attribute {
      name: "momentum"
      f: 0.8999999761581421
      type: FLOAT
    }
  }
  node {
    input: "716"
    input: "ssh3.conv7X7_2.0.weight"
    output: "719"
    name: "Conv_262"
    op_type: "Conv"
    attribute {
      name: "dilations"
      ints: 1
      ints: 1
      type: INTS
    }
    attribute {
      name: "group"
      i: 1
      type: INT
    }
    attribute {
      name: "kernel_shape"
      ints: 3
      ints: 3
      type: INTS
    }
    attribute {
      name: "pads"
      ints: 1
      ints: 1
      ints: 1
      ints: 1
      type: INTS
    }
    attribute {
      name: "strides"
      ints: 1
      ints: 1
      type: INTS
    }
  }
  node {
    input: "719"
    input: "ssh3.conv7X7_2.1.weight"
    input: "ssh3.conv7X7_2.1.bias"
    input: "ssh3.conv7X7_2.1.running_mean"
    input: "ssh3.conv7X7_2.1.running_var"
    output: "720"
    name: "BatchNormalization_263"
    op_type: "BatchNormalization"
    attribute {
      name: "epsilon"
      f: 9.999999747378752e-06
      type: FLOAT
    }
    attribute {
      name: "momentum"
      f: 0.8999999761581421
      type: FLOAT
    }
  }
  node {
    input: "720"
    output: "721"
    name: "LeakyRelu_264"
    op_type: "LeakyRelu"
    attribute {
      name: "alpha"
      f: 0.0
      type: FLOAT
    }
  }
  node {
    input: "721"
    input: "ssh3.conv7x7_3.0.weight"
    output: "722"
    name: "Conv_265"
    op_type: "Conv"
    attribute {
      name: "dilations"
      ints: 1
      ints: 1
      type: INTS
    }
    attribute {
      name: "group"
      i: 1
      type: INT
    }
    attribute {
      name: "kernel_shape"
      ints: 3
      ints: 3
      type: INTS
    }
    attribute {
      name: "pads"
      ints: 1
      ints: 1
      ints: 1
      ints: 1
      type: INTS
    }
    attribute {
      name: "strides"
      ints: 1
      ints: 1
      type: INTS
    }
  }
  node {
    input: "722"
    input: "ssh3.conv7x7_3.1.weight"
    input: "ssh3.conv7x7_3.1.bias"
    input: "ssh3.conv7x7_3.1.running_mean"
    input: "ssh3.conv7x7_3.1.running_var"
    output: "723"
    name: "BatchNormalization_266"
    op_type: "BatchNormalization"
    attribute {
      name: "epsilon"
      f: 9.999999747378752e-06
      type: FLOAT
    }
    attribute {
      name: "momentum"
      f: 0.8999999761581421
      type: FLOAT
    }
  }
  node {
    input: "713"
    input: "718"
    input: "723"
    output: "724"
    name: "Concat_267"
    op_type: "Concat"
    attribute {
      name: "axis"
      i: 1
      type: INT
    }
  }
  node {
    input: "724"
    output: "725"
    name: "Relu_268"
    op_type: "Relu"
  }
  node {
    input: "697"
    input: "BboxHead.0.conv1x1.weight"
    input: "BboxHead.0.conv1x1.bias"
    output: "726"
    name: "Conv_269"
    op_type: "Conv"
    attribute {
      name: "dilations"
      ints: 1
      ints: 1
      type: INTS
    }
    attribute {
      name: "group"
      i: 1
      type: INT
    }
    attribute {
      name: "kernel_shape"
      ints: 1
      ints: 1
      type: INTS
    }
    attribute {
      name: "pads"
      ints: 0
      ints: 0
      ints: 0
      ints: 0
      type: INTS
    }
    attribute {
      name: "strides"
      ints: 1
      ints: 1
      type: INTS
    }
  }
  node {
    input: "726"
    output: "727"
    name: "Transpose_270"
    op_type: "Transpose"
    attribute {
      name: "perm"
      ints: 0
      ints: 2
      ints: 3
      ints: 1
      type: INTS
    }
  }
  node {
    input: "727"
    output: "728"
    name: "Shape_271"
    op_type: "Shape"
  }
  node {
    output: "729"
    name: "Constant_272"
    op_type: "Constant"
    attribute {
      name: "value"
      t {
        data_type: 7
      }
      type: TENSOR
    }
  }
  node {
    input: "728"
    input: "729"
    output: "730"
    name: "Gather_273"
    op_type: "Gather"
    attribute {
      name: "axis"
      i: 0
      type: INT
    }
  }
  node {
    input: "730"
    output: "733"
    name: "Unsqueeze_274"
    op_type: "Unsqueeze"
    attribute {
      name: "axes"
      ints: 0
      type: INTS
    }
  }
  node {
    input: "733"
    input: "838"
    input: "839"
    output: "736"
    name: "Concat_275"
    op_type: "Concat"
    attribute {
      name: "axis"
      i: 0
      type: INT
    }
  }
  node {
    input: "727"
    input: "736"
    output: "737"
    name: "Reshape_276"
    op_type: "Reshape"
  }
  node {
    input: "711"
    input: "BboxHead.1.conv1x1.weight"
    input: "BboxHead.1.conv1x1.bias"
    output: "738"
    name: "Conv_277"
    op_type: "Conv"
    attribute {
      name: "dilations"
      ints: 1
      ints: 1
      type: INTS
    }
    attribute {
      name: "group"
      i: 1
      type: INT
    }
    attribute {
      name: "kernel_shape"
      ints: 1
      ints: 1
      type: INTS
    }
    attribute {
      name: "pads"
      ints: 0
      ints: 0
      ints: 0
      ints: 0
      type: INTS
    }
    attribute {
      name: "strides"
      ints: 1
      ints: 1
      type: INTS
    }
  }
  node {
    input: "738"
    output: "739"
    name: "Transpose_278"
    op_type: "Transpose"
    attribute {
      name: "perm"
      ints: 0
      ints: 2
      ints: 3
      ints: 1
      type: INTS
    }
  }
  node {
    input: "739"
    output: "740"
    name: "Shape_279"
    op_type: "Shape"
  }
  node {
    output: "741"
    name: "Constant_280"
    op_type: "Constant"
    attribute {
      name: "value"
      t {
        data_type: 7
      }
      type: TENSOR
    }
  }
  node {
    input: "740"
    input: "741"
    output: "742"
    name: "Gather_281"
    op_type: "Gather"
    attribute {
      name: "axis"
      i: 0
      type: INT
    }
  }
  node {
    input: "742"
    output: "745"
    name: "Unsqueeze_282"
    op_type: "Unsqueeze"
    attribute {
      name: "axes"
      ints: 0
      type: INTS
    }
  }
  node {
    input: "745"
    input: "840"
    input: "841"
    output: "748"
    name: "Concat_283"
    op_type: "Concat"
    attribute {
      name: "axis"
      i: 0
      type: INT
    }
  }
  node {
    input: "739"
    input: "748"
    output: "749"
    name: "Reshape_284"
    op_type: "Reshape"
  }
  node {
    input: "725"
    input: "BboxHead.2.conv1x1.weight"
    input: "BboxHead.2.conv1x1.bias"
    output: "750"
    name: "Conv_285"
    op_type: "Conv"
    attribute {
      name: "dilations"
      ints: 1
      ints: 1
      type: INTS
    }
    attribute {
      name: "group"
      i: 1
      type: INT
    }
    attribute {
      name: "kernel_shape"
      ints: 1
      ints: 1
      type: INTS
    }
    attribute {
      name: "pads"
      ints: 0
      ints: 0
      ints: 0
      ints: 0
      type: INTS
    }
    attribute {
      name: "strides"
      ints: 1
      ints: 1
      type: INTS
    }
  }
  node {
    input: "750"
    output: "751"
    name: "Transpose_286"
    op_type: "Transpose"
    attribute {
      name: "perm"
      ints: 0
      ints: 2
      ints: 3
      ints: 1
      type: INTS
    }
  }
  node {
    input: "751"
    output: "752"
    name: "Shape_287"
    op_type: "Shape"
  }
  node {
    output: "753"
    name: "Constant_288"
    op_type: "Constant"
    attribute {
      name: "value"
      t {
        data_type: 7
      }
      type: TENSOR
    }
  }
  node {
    input: "752"
    input: "753"
    output: "754"
    name: "Gather_289"
    op_type: "Gather"
    attribute {
      name: "axis"
      i: 0
      type: INT
    }
  }
  node {
    input: "754"
    output: "757"
    name: "Unsqueeze_290"
    op_type: "Unsqueeze"
    attribute {
      name: "axes"
      ints: 0
      type: INTS
    }
  }
  node {
    input: "757"
    input: "842"
    input: "843"
    output: "760"
    name: "Concat_291"
    op_type: "Concat"
    attribute {
      name: "axis"
      i: 0
      type: INT
    }
  }
  node {
    input: "751"
    input: "760"
    output: "761"
    name: "Reshape_292"
    op_type: "Reshape"
  }
  node {
    input: "737"
    input: "749"
    input: "761"
    output: "loc"
    name: "Concat_293"
    op_type: "Concat"
    attribute {
      name: "axis"
      i: 1
      type: INT
    }
  }
  node {
    input: "697"
    input: "ClassHead.0.conv1x1.weight"
    input: "ClassHead.0.conv1x1.bias"
    output: "763"
    name: "Conv_294"
    op_type: "Conv"
    attribute {
      name: "dilations"
      ints: 1
      ints: 1
      type: INTS
    }
    attribute {
      name: "group"
      i: 1
      type: INT
    }
    attribute {
      name: "kernel_shape"
      ints: 1
      ints: 1
      type: INTS
    }
    attribute {
      name: "pads"
      ints: 0
      ints: 0
      ints: 0
      ints: 0
      type: INTS
    }
    attribute {
      name: "strides"
      ints: 1
      ints: 1
      type: INTS
    }
  }
  node {
    input: "763"
    output: "764"
    name: "Transpose_295"
    op_type: "Transpose"
    attribute {
      name: "perm"
      ints: 0
      ints: 2
      ints: 3
      ints: 1
      type: INTS
    }
  }
  node {
    input: "764"
    output: "765"
    name: "Shape_296"
    op_type: "Shape"
  }
  node {
    output: "766"
    name: "Constant_297"
    op_type: "Constant"
    attribute {
      name: "value"
      t {
        data_type: 7
      }
      type: TENSOR
    }
  }
  node {
    input: "765"
    input: "766"
    output: "767"
    name: "Gather_298"
    op_type: "Gather"
    attribute {
      name: "axis"
      i: 0
      type: INT
    }
  }
  node {
    input: "767"
    output: "770"
    name: "Unsqueeze_299"
    op_type: "Unsqueeze"
    attribute {
      name: "axes"
      ints: 0
      type: INTS
    }
  }
  node {
    input: "770"
    input: "844"
    input: "845"
    output: "773"
    name: "Concat_300"
    op_type: "Concat"
    attribute {
      name: "axis"
      i: 0
      type: INT
    }
  }
  node {
    input: "764"
    input: "773"
    output: "774"
    name: "Reshape_301"
    op_type: "Reshape"
  }
  node {
    input: "711"
    input: "ClassHead.1.conv1x1.weight"
    input: "ClassHead.1.conv1x1.bias"
    output: "775"
    name: "Conv_302"
    op_type: "Conv"
    attribute {
      name: "dilations"
      ints: 1
      ints: 1
      type: INTS
    }
    attribute {
      name: "group"
      i: 1
      type: INT
    }
    attribute {
      name: "kernel_shape"
      ints: 1
      ints: 1
      type: INTS
    }
    attribute {
      name: "pads"
      ints: 0
      ints: 0
      ints: 0
      ints: 0
      type: INTS
    }
    attribute {
      name: "strides"
      ints: 1
      ints: 1
      type: INTS
    }
  }
  node {
    input: "775"
    output: "776"
    name: "Transpose_303"
    op_type: "Transpose"
    attribute {
      name: "perm"
      ints: 0
      ints: 2
      ints: 3
      ints: 1
      type: INTS
    }
  }
  node {
    input: "776"
    output: "777"
    name: "Shape_304"
    op_type: "Shape"
  }
  node {
    output: "778"
    name: "Constant_305"
    op_type: "Constant"
    attribute {
      name: "value"
      t {
        data_type: 7
      }
      type: TENSOR
    }
  }
  node {
    input: "777"
    input: "778"
    output: "779"
    name: "Gather_306"
    op_type: "Gather"
    attribute {
      name: "axis"
      i: 0
      type: INT
    }
  }
  node {
    input: "779"
    output: "782"
    name: "Unsqueeze_307"
    op_type: "Unsqueeze"
    attribute {
      name: "axes"
      ints: 0
      type: INTS
    }
  }
  node {
    input: "782"
    input: "846"
    input: "847"
    output: "785"
    name: "Concat_308"
    op_type: "Concat"
    attribute {
      name: "axis"
      i: 0
      type: INT
    }
  }
  node {
    input: "776"
    input: "785"
    output: "786"
    name: "Reshape_309"
    op_type: "Reshape"
  }
  node {
    input: "725"
    input: "ClassHead.2.conv1x1.weight"
    input: "ClassHead.2.conv1x1.bias"
    output: "787"
    name: "Conv_310"
    op_type: "Conv"
    attribute {
      name: "dilations"
      ints: 1
      ints: 1
      type: INTS
    }
    attribute {
      name: "group"
      i: 1
      type: INT
    }
    attribute {
      name: "kernel_shape"
      ints: 1
      ints: 1
      type: INTS
    }
    attribute {
      name: "pads"
      ints: 0
      ints: 0
      ints: 0
      ints: 0
      type: INTS
    }
    attribute {
      name: "strides"
      ints: 1
      ints: 1
      type: INTS
    }
  }
  node {
    input: "787"
    output: "788"
    name: "Transpose_311"
    op_type: "Transpose"
    attribute {
      name: "perm"
      ints: 0
      ints: 2
      ints: 3
      ints: 1
      type: INTS
    }
  }
  node {
    input: "788"
    output: "789"
    name: "Shape_312"
    op_type: "Shape"
  }
  node {
    output: "790"
    name: "Constant_313"
    op_type: "Constant"
    attribute {
      name: "value"
      t {
        data_type: 7
      }
      type: TENSOR
    }
  }
  node {
    input: "789"
    input: "790"
    output: "791"
    name: "Gather_314"
    op_type: "Gather"
    attribute {
      name: "axis"
      i: 0
      type: INT
    }
  }
  node {
    input: "791"
    output: "794"
    name: "Unsqueeze_315"
    op_type: "Unsqueeze"
    attribute {
      name: "axes"
      ints: 0
      type: INTS
    }
  }
  node {
    input: "794"
    input: "848"
    input: "849"
    output: "797"
    name: "Concat_316"
    op_type: "Concat"
    attribute {
      name: "axis"
      i: 0
      type: INT
    }
  }
  node {
    input: "788"
    input: "797"
    output: "798"
    name: "Reshape_317"
    op_type: "Reshape"
  }
  node {
    input: "774"
    input: "786"
    input: "798"
    output: "799"
    name: "Concat_318"
    op_type: "Concat"
    attribute {
      name: "axis"
      i: 1
      type: INT
    }
  }
  node {
    input: "697"
    input: "LandmarkHead.0.conv1x1.weight"
    input: "LandmarkHead.0.conv1x1.bias"
    output: "800"
    name: "Conv_319"
    op_type: "Conv"
    attribute {
      name: "dilations"
      ints: 1
      ints: 1
      type: INTS
    }
    attribute {
      name: "group"
      i: 1
      type: INT
    }
    attribute {
      name: "kernel_shape"
      ints: 1
      ints: 1
      type: INTS
    }
    attribute {
      name: "pads"
      ints: 0
      ints: 0
      ints: 0
      ints: 0
      type: INTS
    }
    attribute {
      name: "strides"
      ints: 1
      ints: 1
      type: INTS
    }
  }
  node {
    input: "800"
    output: "801"
    name: "Transpose_320"
    op_type: "Transpose"
    attribute {
      name: "perm"
      ints: 0
      ints: 2
      ints: 3
      ints: 1
      type: INTS
    }
  }
  node {
    input: "801"
    output: "802"
    name: "Shape_321"
    op_type: "Shape"
  }
  node {
    output: "803"
    name: "Constant_322"
    op_type: "Constant"
    attribute {
      name: "value"
      t {
        data_type: 7
      }
      type: TENSOR
    }
  }
  node {
    input: "802"
    input: "803"
    output: "804"
    name: "Gather_323"
    op_type: "Gather"
    attribute {
      name: "axis"
      i: 0
      type: INT
    }
  }
  node {
    input: "804"
    output: "807"
    name: "Unsqueeze_324"
    op_type: "Unsqueeze"
    attribute {
      name: "axes"
      ints: 0
      type: INTS
    }
  }
  node {
    input: "807"
    input: "850"
    input: "851"
    output: "810"
    name: "Concat_325"
    op_type: "Concat"
    attribute {
      name: "axis"
      i: 0
      type: INT
    }
  }
  node {
    input: "801"
    input: "810"
    output: "811"
    name: "Reshape_326"
    op_type: "Reshape"
  }
  node {
    input: "711"
    input: "LandmarkHead.1.conv1x1.weight"
    input: "LandmarkHead.1.conv1x1.bias"
    output: "812"
    name: "Conv_327"
    op_type: "Conv"
    attribute {
      name: "dilations"
      ints: 1
      ints: 1
      type: INTS
    }
    attribute {
      name: "group"
      i: 1
      type: INT
    }
    attribute {
      name: "kernel_shape"
      ints: 1
      ints: 1
      type: INTS
    }
    attribute {
      name: "pads"
      ints: 0
      ints: 0
      ints: 0
      ints: 0
      type: INTS
    }
    attribute {
      name: "strides"
      ints: 1
      ints: 1
      type: INTS
    }
  }
  node {
    input: "812"
    output: "813"
    name: "Transpose_328"
    op_type: "Transpose"
    attribute {
      name: "perm"
      ints: 0
      ints: 2
      ints: 3
      ints: 1
      type: INTS
    }
  }
  node {
    input: "813"
    output: "814"
    name: "Shape_329"
    op_type: "Shape"
  }
  node {
    output: "815"
    name: "Constant_330"
    op_type: "Constant"
    attribute {
      name: "value"
      t {
        data_type: 7
      }
      type: TENSOR
    }
  }
  node {
    input: "814"
    input: "815"
    output: "816"
    name: "Gather_331"
    op_type: "Gather"
    attribute {
      name: "axis"
      i: 0
      type: INT
    }
  }
  node {
    input: "816"
    output: "819"
    name: "Unsqueeze_332"
    op_type: "Unsqueeze"
    attribute {
      name: "axes"
      ints: 0
      type: INTS
    }
  }
  node {
    input: "819"
    input: "852"
    input: "853"
    output: "822"
    name: "Concat_333"
    op_type: "Concat"
    attribute {
      name: "axis"
      i: 0
      type: INT
    }
  }
  node {
    input: "813"
    input: "822"
    output: "823"
    name: "Reshape_334"
    op_type: "Reshape"
  }
  node {
    input: "725"
    input: "LandmarkHead.2.conv1x1.weight"
    input: "LandmarkHead.2.conv1x1.bias"
    output: "824"
    name: "Conv_335"
    op_type: "Conv"
    attribute {
      name: "dilations"
      ints: 1
      ints: 1
      type: INTS
    }
    attribute {
      name: "group"
      i: 1
      type: INT
    }
    attribute {
      name: "kernel_shape"
      ints: 1
      ints: 1
      type: INTS
    }
    attribute {
      name: "pads"
      ints: 0
      ints: 0
      ints: 0
      ints: 0
      type: INTS
    }
    attribute {
      name: "strides"
      ints: 1
      ints: 1
      type: INTS
    }
  }
  node {
    input: "824"
    output: "825"
    name: "Transpose_336"
    op_type: "Transpose"
    attribute {
      name: "perm"
      ints: 0
      ints: 2
      ints: 3
      ints: 1
      type: INTS
    }
  }
  node {
    input: "825"
    output: "826"
    name: "Shape_337"
    op_type: "Shape"
  }
  node {
    output: "827"
    name: "Constant_338"
    op_type: "Constant"
    attribute {
      name: "value"
      t {
        data_type: 7
      }
      type: TENSOR
    }
  }
  node {
    input: "826"
    input: "827"
    output: "828"
    name: "Gather_339"
    op_type: "Gather"
    attribute {
      name: "axis"
      i: 0
      type: INT
    }
  }
  node {
    input: "828"
    output: "831"
    name: "Unsqueeze_340"
    op_type: "Unsqueeze"
    attribute {
      name: "axes"
      ints: 0
      type: INTS
    }
  }
  node {
    input: "831"
    input: "854"
    input: "855"
    output: "834"
    name: "Concat_341"
    op_type: "Concat"
    attribute {
      name: "axis"
      i: 0
      type: INT
    }
  }
  node {
    input: "825"
    input: "834"
    output: "835"
    name: "Reshape_342"
    op_type: "Reshape"
  }
  node {
    input: "811"
    input: "823"
    input: "835"
    output: "landms"
    name: "Concat_343"
    op_type: "Concat"
    attribute {
      name: "axis"
      i: 1
      type: INT
    }
  }
  node {
    input: "799"
    output: "conf"
    name: "Softmax_344"
    op_type: "Softmax"
    attribute {
      name: "axis"
      i: 2
      type: INT
    }
  }
  initializer {
      dims: 1
      data_type: 7
      name: "838"
  }
  initializer {
      dims: 1
      data_type: 7
      name: "839"
  }
  initializer {
      dims: 1
      data_type: 7
      name: "840"
  }
  initializer {
      dims: 1
      data_type: 7
      name: "841"
  }
  initializer {
      dims: 1
      data_type: 7
      name: "842"
  }
  initializer {
      dims: 1
      data_type: 7
      name: "843"
  }
  initializer {
      dims: 1
      data_type: 7
      name: "844"
  }
  initializer {
      dims: 1
      data_type: 7
      name: "845"
  }
  initializer {
      dims: 1
      data_type: 7
      name: "846"
  }
  initializer {
      dims: 1
      data_type: 7
      name: "847"
  }
  initializer {
      dims: 1
      data_type: 7
      name: "848"
  }
  initializer {
      dims: 1
      data_type: 7
      name: "849"
  }
  initializer {
      dims: 1
      data_type: 7
      name: "850"
  }
  initializer {
      dims: 1
      data_type: 7
      name: "851"
  }
  initializer {
      dims: 1
      data_type: 7
      name: "852"
  }
  initializer {
      dims: 1
      data_type: 7
      name: "853"
  }
  initializer {
      dims: 1
      data_type: 7
      name: "854"
  }
  initializer {
      dims: 1
      data_type: 7
      name: "855"
  }
  initializer {
      dims: 8
      data_type: 1
      name: "BboxHead.0.conv1x1.bias"
  }
  initializer {
      dims: 8
      dims: 256
      dims: 1
      dims: 1
      data_type: 1
      name: "BboxHead.0.conv1x1.weight"
  }
  initializer {
      dims: 8
      data_type: 1
      name: "BboxHead.1.conv1x1.bias"
  }
  initializer {
      dims: 8
      dims: 256
      dims: 1
      dims: 1
      data_type: 1
      name: "BboxHead.1.conv1x1.weight"
  }
  initializer {
      dims: 8
      data_type: 1
      name: "BboxHead.2.conv1x1.bias"
  }
  initializer {
      dims: 8
      dims: 256
      dims: 1
      dims: 1
      data_type: 1
      name: "BboxHead.2.conv1x1.weight"
  }
  initializer {
      dims: 4
      data_type: 1
      name: "ClassHead.0.conv1x1.bias"
  }
  initializer {
      dims: 4
      dims: 256
      dims: 1
      dims: 1
      data_type: 1
      name: "ClassHead.0.conv1x1.weight"
  }
  initializer {
      dims: 4
      data_type: 1
      name: "ClassHead.1.conv1x1.bias"
  }
  initializer {
      dims: 4
      dims: 256
      dims: 1
      dims: 1
      data_type: 1
      name: "ClassHead.1.conv1x1.weight"
  }
  initializer {
      dims: 4
      data_type: 1
      name: "ClassHead.2.conv1x1.bias"
  }
  initializer {
      dims: 4
      dims: 256
      dims: 1
      dims: 1
      data_type: 1
      name: "ClassHead.2.conv1x1.weight"
  }
  initializer {
      dims: 20
      data_type: 1
      name: "LandmarkHead.0.conv1x1.bias"
  }
  initializer {
      dims: 20
      dims: 256
      dims: 1
      dims: 1
      data_type: 1
      name: "LandmarkHead.0.conv1x1.weight"
  }
  initializer {
      dims: 20
      data_type: 1
      name: "LandmarkHead.1.conv1x1.bias"
  }
  initializer {
      dims: 20
      dims: 256
      dims: 1
      dims: 1
      data_type: 1
      name: "LandmarkHead.1.conv1x1.weight"
  }
  initializer {
      dims: 20
      data_type: 1
      name: "LandmarkHead.2.conv1x1.bias"
  }
  initializer {
      dims: 20
      dims: 256
      dims: 1
      dims: 1
      data_type: 1
      name: "LandmarkHead.2.conv1x1.weight"
  }
  initializer {
      dims: 64
      data_type: 1
      name: "body.bn1.bias"
  }
  initializer {
      dims: 64
      data_type: 1
      name: "body.bn1.running_mean"
  }
  initializer {
      dims: 64
      data_type: 1
      name: "body.bn1.running_var"
  }
  initializer {
      dims: 64
      data_type: 1
      name: "body.bn1.weight"
  }
  initializer {
      dims: 64
      dims: 3
      dims: 7
      dims: 7
      data_type: 1
      name: "body.conv1.weight"
  }
  initializer {
      dims: 64
      data_type: 1
      name: "body.layer1.0.bn1.bias"
  }
  initializer {
      dims: 64
      data_type: 1
      name: "body.layer1.0.bn1.running_mean"
  }
  initializer {
      dims: 64
      data_type: 1
      name: "body.layer1.0.bn1.running_var"
  }
  initializer {
      dims: 64
      data_type: 1
      name: "body.layer1.0.bn1.weight"
  }
  initializer {
      dims: 64
      data_type: 1
      name: "body.layer1.0.bn2.bias"
  }
  initializer {
      dims: 64
      data_type: 1
      name: "body.layer1.0.bn2.running_mean"
  }
  initializer {
      dims: 64
      data_type: 1
      name: "body.layer1.0.bn2.running_var"
  }
  initializer {
      dims: 64
      data_type: 1
      name: "body.layer1.0.bn2.weight"
  }
  initializer {
      dims: 256
      data_type: 1
      name: "body.layer1.0.bn3.bias"
  }
  initializer {
      dims: 256
      data_type: 1
      name: "body.layer1.0.bn3.running_mean"
  }
  initializer {
      dims: 256
      data_type: 1
      name: "body.layer1.0.bn3.running_var"
  }
  initializer {
      dims: 256
      data_type: 1
      name: "body.layer1.0.bn3.weight"
  }
  initializer {
      dims: 64
      dims: 64
      dims: 1
      dims: 1
      data_type: 1
      name: "body.layer1.0.conv1.weight"
  }
  initializer {
      dims: 64
      dims: 64
      dims: 3
      dims: 3
      data_type: 1
      name: "body.layer1.0.conv2.weight"
  }
  initializer {
      dims: 256
      dims: 64
      dims: 1
      dims: 1
      data_type: 1
      name: "body.layer1.0.conv3.weight"
  }
  initializer {
      dims: 256
      dims: 64
      dims: 1
      dims: 1
      data_type: 1
      name: "body.layer1.0.downsample.0.weight"
  }
  initializer {
      dims: 256
      data_type: 1
      name: "body.layer1.0.downsample.1.bias"
  }
  initializer {
      dims: 256
      data_type: 1
      name: "body.layer1.0.downsample.1.running_mean"
  }
  initializer {
      dims: 256
      data_type: 1
      name: "body.layer1.0.downsample.1.running_var"
  }
  initializer {
      dims: 256
      data_type: 1
      name: "body.layer1.0.downsample.1.weight"
  }
  initializer {
      dims: 64
      data_type: 1
      name: "body.layer1.1.bn1.bias"
  }
  initializer {
      dims: 64
      data_type: 1
      name: "body.layer1.1.bn1.running_mean"
  }
  initializer {
      dims: 64
      data_type: 1
      name: "body.layer1.1.bn1.running_var"
  }
  initializer {
      dims: 64
      data_type: 1
      name: "body.layer1.1.bn1.weight"
  }
  initializer {
      dims: 64
      data_type: 1
      name: "body.layer1.1.bn2.bias"
  }
  initializer {
      dims: 64
      data_type: 1
      name: "body.layer1.1.bn2.running_mean"
  }
  initializer {
      dims: 64
      data_type: 1
      name: "body.layer1.1.bn2.running_var"
  }
  initializer {
      dims: 64
      data_type: 1
      name: "body.layer1.1.bn2.weight"
  }
  initializer {
      dims: 256
      data_type: 1
      name: "body.layer1.1.bn3.bias"
  }
  initializer {
      dims: 256
      data_type: 1
      name: "body.layer1.1.bn3.running_mean"
  }
  initializer {
      dims: 256
      data_type: 1
      name: "body.layer1.1.bn3.running_var"
  }
  initializer {
      dims: 256
      data_type: 1
      name: "body.layer1.1.bn3.weight"
  }
  initializer {
      dims: 64
      dims: 256
      dims: 1
      dims: 1
      data_type: 1
      name: "body.layer1.1.conv1.weight"
  }
  initializer {
      dims: 64
      dims: 64
      dims: 3
      dims: 3
      data_type: 1
      name: "body.layer1.1.conv2.weight"
  }
  initializer {
      dims: 256
      dims: 64
      dims: 1
      dims: 1
      data_type: 1
      name: "body.layer1.1.conv3.weight"
  }
  initializer {
      dims: 64
      data_type: 1
      name: "body.layer1.2.bn1.bias"
  }
  initializer {
      dims: 64
      data_type: 1
      name: "body.layer1.2.bn1.running_mean"
  }
  initializer {
      dims: 64
      data_type: 1
      name: "body.layer1.2.bn1.running_var"
  }
  initializer {
      dims: 64
      data_type: 1
      name: "body.layer1.2.bn1.weight"
  }
  initializer {
      dims: 64
      data_type: 1
      name: "body.layer1.2.bn2.bias"
  }
  initializer {
      dims: 64
      data_type: 1
      name: "body.layer1.2.bn2.running_mean"
  }
  initializer {
      dims: 64
      data_type: 1
      name: "body.layer1.2.bn2.running_var"
  }
  initializer {
      dims: 64
      data_type: 1
      name: "body.layer1.2.bn2.weight"
  }
  initializer {
      dims: 256
      data_type: 1
      name: "body.layer1.2.bn3.bias"
  }
  initializer {
      dims: 256
      data_type: 1
      name: "body.layer1.2.bn3.running_mean"
  }
  initializer {
      dims: 256
      data_type: 1
      name: "body.layer1.2.bn3.running_var"
  }
  initializer {
      dims: 256
      data_type: 1
      name: "body.layer1.2.bn3.weight"
  }
  initializer {
      dims: 64
      dims: 256
      dims: 1
      dims: 1
      data_type: 1
      name: "body.layer1.2.conv1.weight"
  }
  initializer {
      dims: 64
      dims: 64
      dims: 3
      dims: 3
      data_type: 1
      name: "body.layer1.2.conv2.weight"
  }
  initializer {
      dims: 256
      dims: 64
      dims: 1
      dims: 1
      data_type: 1
      name: "body.layer1.2.conv3.weight"
  }
  initializer {
      dims: 128
      data_type: 1
      name: "body.layer2.0.bn1.bias"
  }
  initializer {
      dims: 128
      data_type: 1
      name: "body.layer2.0.bn1.running_mean"
  }
  initializer {
      dims: 128
      data_type: 1
      name: "body.layer2.0.bn1.running_var"
  }
  initializer {
      dims: 128
      data_type: 1
      name: "body.layer2.0.bn1.weight"
  }
  initializer {
      dims: 128
      data_type: 1
      name: "body.layer2.0.bn2.bias"
  }
  initializer {
      dims: 128
      data_type: 1
      name: "body.layer2.0.bn2.running_mean"
  }
  initializer {
      dims: 128
      data_type: 1
      name: "body.layer2.0.bn2.running_var"
  }
  initializer {
      dims: 128
      data_type: 1
      name: "body.layer2.0.bn2.weight"
  }
  initializer {
      dims: 512
      data_type: 1
      name: "body.layer2.0.bn3.bias"
  }
  initializer {
      dims: 512
      data_type: 1
      name: "body.layer2.0.bn3.running_mean"
  }
  initializer {
      dims: 512
      data_type: 1
      name: "body.layer2.0.bn3.running_var"
  }
  initializer {
      dims: 512
      data_type: 1
      name: "body.layer2.0.bn3.weight"
  }
  initializer {
      dims: 128
      dims: 256
      dims: 1
      dims: 1
      data_type: 1
      name: "body.layer2.0.conv1.weight"
  }
  initializer {
      dims: 128
      dims: 128
      dims: 3
      dims: 3
      data_type: 1
      name: "body.layer2.0.conv2.weight"
  }
  initializer {
      dims: 512
      dims: 128
      dims: 1
      dims: 1
      data_type: 1
      name: "body.layer2.0.conv3.weight"
  }
  initializer {
      dims: 512
      dims: 256
      dims: 1
      dims: 1
      data_type: 1
      name: "body.layer2.0.downsample.0.weight"
  }
  initializer {
      dims: 512
      data_type: 1
      name: "body.layer2.0.downsample.1.bias"
  }
  initializer {
      dims: 512
      data_type: 1
      name: "body.layer2.0.downsample.1.running_mean"
  }
  initializer {
      dims: 512
      data_type: 1
      name: "body.layer2.0.downsample.1.running_var"
  }
  initializer {
      dims: 512
      data_type: 1
      name: "body.layer2.0.downsample.1.weight"
  }
  initializer {
      dims: 128
      data_type: 1
      name: "body.layer2.1.bn1.bias"
  }
  initializer {
      dims: 128
      data_type: 1
      name: "body.layer2.1.bn1.running_mean"
  }
  initializer {
      dims: 128
      data_type: 1
      name: "body.layer2.1.bn1.running_var"
  }
  initializer {
      dims: 128
      data_type: 1
      name: "body.layer2.1.bn1.weight"
  }
  initializer {
      dims: 128
      data_type: 1
      name: "body.layer2.1.bn2.bias"
  }
  initializer {
      dims: 128
      data_type: 1
      name: "body.layer2.1.bn2.running_mean"
  }
  initializer {
      dims: 128
      data_type: 1
      name: "body.layer2.1.bn2.running_var"
  }
  initializer {
      dims: 128
      data_type: 1
      name: "body.layer2.1.bn2.weight"
  }
  initializer {
      dims: 512
      data_type: 1
      name: "body.layer2.1.bn3.bias"
  }
  initializer {
      dims: 512
      data_type: 1
      name: "body.layer2.1.bn3.running_mean"
  }
  initializer {
      dims: 512
      data_type: 1
      name: "body.layer2.1.bn3.running_var"
  }
  initializer {
      dims: 512
      data_type: 1
      name: "body.layer2.1.bn3.weight"
  }
  initializer {
      dims: 128
      dims: 512
      dims: 1
      dims: 1
      data_type: 1
      name: "body.layer2.1.conv1.weight"
  }
  initializer {
      dims: 128
      dims: 128
      dims: 3
      dims: 3
      data_type: 1
      name: "body.layer2.1.conv2.weight"
  }
  initializer {
      dims: 512
      dims: 128
      dims: 1
      dims: 1
      data_type: 1
      name: "body.layer2.1.conv3.weight"
  }
  initializer {
      dims: 128
      data_type: 1
      name: "body.layer2.2.bn1.bias"
  }
  initializer {
      dims: 128
      data_type: 1
      name: "body.layer2.2.bn1.running_mean"
  }
  initializer {
      dims: 128
      data_type: 1
      name: "body.layer2.2.bn1.running_var"
  }
  initializer {
      dims: 128
      data_type: 1
      name: "body.layer2.2.bn1.weight"
  }
  initializer {
      dims: 128
      data_type: 1
      name: "body.layer2.2.bn2.bias"
  }
  initializer {
      dims: 128
      data_type: 1
      name: "body.layer2.2.bn2.running_mean"
  }
  initializer {
      dims: 128
      data_type: 1
      name: "body.layer2.2.bn2.running_var"
  }
  initializer {
      dims: 128
      data_type: 1
      name: "body.layer2.2.bn2.weight"
  }
  initializer {
      dims: 512
      data_type: 1
      name: "body.layer2.2.bn3.bias"
  }
  initializer {
      dims: 512
      data_type: 1
      name: "body.layer2.2.bn3.running_mean"
  }
  initializer {
      dims: 512
      data_type: 1
      name: "body.layer2.2.bn3.running_var"
  }
  initializer {
      dims: 512
      data_type: 1
      name: "body.layer2.2.bn3.weight"
  }
  initializer {
      dims: 128
      dims: 512
      dims: 1
      dims: 1
      data_type: 1
      name: "body.layer2.2.conv1.weight"
  }
  initializer {
      dims: 128
      dims: 128
      dims: 3
      dims: 3
      data_type: 1
      name: "body.layer2.2.conv2.weight"
  }
  initializer {
      dims: 512
      dims: 128
      dims: 1
      dims: 1
      data_type: 1
      name: "body.layer2.2.conv3.weight"
  }
  initializer {
      dims: 128
      data_type: 1
      name: "body.layer2.3.bn1.bias"
  }
  initializer {
      dims: 128
      data_type: 1
      name: "body.layer2.3.bn1.running_mean"
  }
  initializer {
      dims: 128
      data_type: 1
      name: "body.layer2.3.bn1.running_var"
  }
  initializer {
      dims: 128
      data_type: 1
      name: "body.layer2.3.bn1.weight"
  }
  initializer {
      dims: 128
      data_type: 1
      name: "body.layer2.3.bn2.bias"
  }
  initializer {
      dims: 128
      data_type: 1
      name: "body.layer2.3.bn2.running_mean"
  }
  initializer {
      dims: 128
      data_type: 1
      name: "body.layer2.3.bn2.running_var"
  }
  initializer {
      dims: 128
      data_type: 1
      name: "body.layer2.3.bn2.weight"
  }
  initializer {
      dims: 512
      data_type: 1
      name: "body.layer2.3.bn3.bias"
  }
  initializer {
      dims: 512
      data_type: 1
      name: "body.layer2.3.bn3.running_mean"
  }
  initializer {
      dims: 512
      data_type: 1
      name: "body.layer2.3.bn3.running_var"
  }
  initializer {
      dims: 512
      data_type: 1
      name: "body.layer2.3.bn3.weight"
  }
  initializer {
      dims: 128
      dims: 512
      dims: 1
      dims: 1
      data_type: 1
      name: "body.layer2.3.conv1.weight"
  }
  initializer {
      dims: 128
      dims: 128
      dims: 3
      dims: 3
      data_type: 1
      name: "body.layer2.3.conv2.weight"
  }
  initializer {
      dims: 512
      dims: 128
      dims: 1
      dims: 1
      data_type: 1
      name: "body.layer2.3.conv3.weight"
  }
  initializer {
      dims: 256
      data_type: 1
      name: "body.layer3.0.bn1.bias"
  }
  initializer {
      dims: 256
      data_type: 1
      name: "body.layer3.0.bn1.running_mean"
  }
  initializer {
      dims: 256
      data_type: 1
      name: "body.layer3.0.bn1.running_var"
  }
  initializer {
      dims: 256
      data_type: 1
      name: "body.layer3.0.bn1.weight"
  }
  initializer {
      dims: 256
      data_type: 1
      name: "body.layer3.0.bn2.bias"
  }
  initializer {
      dims: 256
      data_type: 1
      name: "body.layer3.0.bn2.running_mean"
  }
  initializer {
      dims: 256
      data_type: 1
      name: "body.layer3.0.bn2.running_var"
  }
  initializer {
      dims: 256
      data_type: 1
      name: "body.layer3.0.bn2.weight"
  }
  initializer {
      dims: 1024
      data_type: 1
      name: "body.layer3.0.bn3.bias"
  }
  initializer {
      dims: 1024
      data_type: 1
      name: "body.layer3.0.bn3.running_mean"
  }
  initializer {
      dims: 1024
      data_type: 1
      name: "body.layer3.0.bn3.running_var"
  }
  initializer {
      dims: 1024
      data_type: 1
      name: "body.layer3.0.bn3.weight"
  }
  initializer {
      dims: 256
      dims: 512
      dims: 1
      dims: 1
      data_type: 1
      name: "body.layer3.0.conv1.weight"
  }
  initializer {
      dims: 256
      dims: 256
      dims: 3
      dims: 3
      data_type: 1
      name: "body.layer3.0.conv2.weight"
  }
  initializer {
      dims: 1024
      dims: 256
      dims: 1
      dims: 1
      data_type: 1
      name: "body.layer3.0.conv3.weight"
  }
  initializer {
      dims: 1024
      dims: 512
      dims: 1
      dims: 1
      data_type: 1
      name: "body.layer3.0.downsample.0.weight"
  }
  initializer {
      dims: 1024
      data_type: 1
      name: "body.layer3.0.downsample.1.bias"
  }
  initializer {
      dims: 1024
      data_type: 1
      name: "body.layer3.0.downsample.1.running_mean"
  }
  initializer {
      dims: 1024
      data_type: 1
      name: "body.layer3.0.downsample.1.running_var"
  }
  initializer {
      dims: 1024
      data_type: 1
      name: "body.layer3.0.downsample.1.weight"
  }
  initializer {
      dims: 256
      data_type: 1
      name: "body.layer3.1.bn1.bias"
  }
  initializer {
      dims: 256
      data_type: 1
      name: "body.layer3.1.bn1.running_mean"
  }
  initializer {
      dims: 256
      data_type: 1
      name: "body.layer3.1.bn1.running_var"
  }
  initializer {
      dims: 256
      data_type: 1
      name: "body.layer3.1.bn1.weight"
  }
  initializer {
      dims: 256
      data_type: 1
      name: "body.layer3.1.bn2.bias"
  }
  initializer {
      dims: 256
      data_type: 1
      name: "body.layer3.1.bn2.running_mean"
  }
  initializer {
      dims: 256
      data_type: 1
      name: "body.layer3.1.bn2.running_var"
  }
  initializer {
      dims: 256
      data_type: 1
      name: "body.layer3.1.bn2.weight"
  }
  initializer {
      dims: 1024
      data_type: 1
      name: "body.layer3.1.bn3.bias"
  }
  initializer {
      dims: 1024
      data_type: 1
      name: "body.layer3.1.bn3.running_mean"
  }
  initializer {
      dims: 1024
      data_type: 1
      name: "body.layer3.1.bn3.running_var"
  }
  initializer {
      dims: 1024
      data_type: 1
      name: "body.layer3.1.bn3.weight"
  }
  initializer {
      dims: 256
      dims: 1024
      dims: 1
      dims: 1
      data_type: 1
      name: "body.layer3.1.conv1.weight"
  }
  initializer {
      dims: 256
      dims: 256
      dims: 3
      dims: 3
      data_type: 1
      name: "body.layer3.1.conv2.weight"
  }
  initializer {
      dims: 1024
      dims: 256
      dims: 1
      dims: 1
      data_type: 1
      name: "body.layer3.1.conv3.weight"
  }
  initializer {
      dims: 256
      data_type: 1
      name: "body.layer3.2.bn1.bias"
  }
  initializer {
      dims: 256
      data_type: 1
      name: "body.layer3.2.bn1.running_mean"
  }
  initializer {
      dims: 256
      data_type: 1
      name: "body.layer3.2.bn1.running_var"
  }
  initializer {
      dims: 256
      data_type: 1
      name: "body.layer3.2.bn1.weight"
  }
  initializer {
      dims: 256
      data_type: 1
      name: "body.layer3.2.bn2.bias"
  }
  initializer {
      dims: 256
      data_type: 1
      name: "body.layer3.2.bn2.running_mean"
  }
  initializer {
      dims: 256
      data_type: 1
      name: "body.layer3.2.bn2.running_var"
  }
  initializer {
      dims: 256
      data_type: 1
      name: "body.layer3.2.bn2.weight"
  }
  initializer {
      dims: 1024
      data_type: 1
      name: "body.layer3.2.bn3.bias"
  }
  initializer {
      dims: 1024
      data_type: 1
      name: "body.layer3.2.bn3.running_mean"
  }
  initializer {
      dims: 1024
      data_type: 1
      name: "body.layer3.2.bn3.running_var"
  }
  initializer {
      dims: 1024
      data_type: 1
      name: "body.layer3.2.bn3.weight"
  }
  initializer {
      dims: 256
      dims: 1024
      dims: 1
      dims: 1
      data_type: 1
      name: "body.layer3.2.conv1.weight"
  }
  initializer {
      dims: 256
      dims: 256
      dims: 3
      dims: 3
      data_type: 1
      name: "body.layer3.2.conv2.weight"
  }
  initializer {
      dims: 1024
      dims: 256
      dims: 1
      dims: 1
      data_type: 1
      name: "body.layer3.2.conv3.weight"
  }
  initializer {
      dims: 256
      data_type: 1
      name: "body.layer3.3.bn1.bias"
  }
  initializer {
      dims: 256
      data_type: 1
      name: "body.layer3.3.bn1.running_mean"
  }
  initializer {
      dims: 256
      data_type: 1
      name: "body.layer3.3.bn1.running_var"
  }
  initializer {
      dims: 256
      data_type: 1
      name: "body.layer3.3.bn1.weight"
  }
  initializer {
      dims: 256
      data_type: 1
      name: "body.layer3.3.bn2.bias"
  }
  initializer {
      dims: 256
      data_type: 1
      name: "body.layer3.3.bn2.running_mean"
  }
  initializer {
      dims: 256
      data_type: 1
      name: "body.layer3.3.bn2.running_var"
  }
  initializer {
      dims: 256
      data_type: 1
      name: "body.layer3.3.bn2.weight"
  }
  initializer {
      dims: 1024
      data_type: 1
      name: "body.layer3.3.bn3.bias"
  }
  initializer {
      dims: 1024
      data_type: 1
      name: "body.layer3.3.bn3.running_mean"
  }
  initializer {
      dims: 1024
      data_type: 1
      name: "body.layer3.3.bn3.running_var"
  }
  initializer {
      dims: 1024
      data_type: 1
      name: "body.layer3.3.bn3.weight"
  }
  initializer {
      dims: 256
      dims: 1024
      dims: 1
      dims: 1
      data_type: 1
      name: "body.layer3.3.conv1.weight"
  }
  initializer {
      dims: 256
      dims: 256
      dims: 3
      dims: 3
      data_type: 1
      name: "body.layer3.3.conv2.weight"
  }
  initializer {
      dims: 1024
      dims: 256
      dims: 1
      dims: 1
      data_type: 1
      name: "body.layer3.3.conv3.weight"
  }
  initializer {
      dims: 256
      data_type: 1
      name: "body.layer3.4.bn1.bias"
  }
  initializer {
      dims: 256
      data_type: 1
      name: "body.layer3.4.bn1.running_mean"
  }
  initializer {
      dims: 256
      data_type: 1
      name: "body.layer3.4.bn1.running_var"
  }
  initializer {
      dims: 256
      data_type: 1
      name: "body.layer3.4.bn1.weight"
  }
  initializer {
      dims: 256
      data_type: 1
      name: "body.layer3.4.bn2.bias"
  }
  initializer {
      dims: 256
      data_type: 1
      name: "body.layer3.4.bn2.running_mean"
  }
  initializer {
      dims: 256
      data_type: 1
      name: "body.layer3.4.bn2.running_var"
  }
  initializer {
      dims: 256
      data_type: 1
      name: "body.layer3.4.bn2.weight"
  }
  initializer {
      dims: 1024
      data_type: 1
      name: "body.layer3.4.bn3.bias"
  }
  initializer {
      dims: 1024
      data_type: 1
      name: "body.layer3.4.bn3.running_mean"
  }
  initializer {
      dims: 1024
      data_type: 1
      name: "body.layer3.4.bn3.running_var"
  }
  initializer {
      dims: 1024
      data_type: 1
      name: "body.layer3.4.bn3.weight"
  }
  initializer {
      dims: 256
      dims: 1024
      dims: 1
      dims: 1
      data_type: 1
      name: "body.layer3.4.conv1.weight"
  }
  initializer {
      dims: 256
      dims: 256
      dims: 3
      dims: 3
      data_type: 1
      name: "body.layer3.4.conv2.weight"
  }
  initializer {
      dims: 1024
      dims: 256
      dims: 1
      dims: 1
      data_type: 1
      name: "body.layer3.4.conv3.weight"
  }
  initializer {
      dims: 256
      data_type: 1
      name: "body.layer3.5.bn1.bias"
  }
  initializer {
      dims: 256
      data_type: 1
      name: "body.layer3.5.bn1.running_mean"
  }
  initializer {
      dims: 256
      data_type: 1
      name: "body.layer3.5.bn1.running_var"
  }
  initializer {
      dims: 256
      data_type: 1
      name: "body.layer3.5.bn1.weight"
  }
  initializer {
      dims: 256
      data_type: 1
      name: "body.layer3.5.bn2.bias"
  }
  initializer {
      dims: 256
      data_type: 1
      name: "body.layer3.5.bn2.running_mean"
  }
  initializer {
      dims: 256
      data_type: 1
      name: "body.layer3.5.bn2.running_var"
  }
  initializer {
      dims: 256
      data_type: 1
      name: "body.layer3.5.bn2.weight"
  }
  initializer {
      dims: 1024
      data_type: 1
      name: "body.layer3.5.bn3.bias"
  }
  initializer {
      dims: 1024
      data_type: 1
      name: "body.layer3.5.bn3.running_mean"
  }
  initializer {
      dims: 1024
      data_type: 1
      name: "body.layer3.5.bn3.running_var"
  }
  initializer {
      dims: 1024
      data_type: 1
      name: "body.layer3.5.bn3.weight"
  }
  initializer {
      dims: 256
      dims: 1024
      dims: 1
      dims: 1
      data_type: 1
      name: "body.layer3.5.conv1.weight"
  }
  initializer {
      dims: 256
      dims: 256
      dims: 3
      dims: 3
      data_type: 1
      name: "body.layer3.5.conv2.weight"
  }
  initializer {
      dims: 1024
      dims: 256
      dims: 1
      dims: 1
      data_type: 1
      name: "body.layer3.5.conv3.weight"
  }
  initializer {
      dims: 512
      data_type: 1
      name: "body.layer4.0.bn1.bias"
  }
  initializer {
      dims: 512
      data_type: 1
      name: "body.layer4.0.bn1.running_mean"
  }
  initializer {
      dims: 512
      data_type: 1
      name: "body.layer4.0.bn1.running_var"
  }
  initializer {
      dims: 512
      data_type: 1
      name: "body.layer4.0.bn1.weight"
  }
  initializer {
      dims: 512
      data_type: 1
      name: "body.layer4.0.bn2.bias"
  }
  initializer {
      dims: 512
      data_type: 1
      name: "body.layer4.0.bn2.running_mean"
  }
  initializer {
      dims: 512
      data_type: 1
      name: "body.layer4.0.bn2.running_var"
  }
  initializer {
      dims: 512
      data_type: 1
      name: "body.layer4.0.bn2.weight"
  }
  initializer {
      dims: 2048
      data_type: 1
      name: "body.layer4.0.bn3.bias"
  }
  initializer {
      dims: 2048
      data_type: 1
      name: "body.layer4.0.bn3.running_mean"
  }
  initializer {
      dims: 2048
      data_type: 1
      name: "body.layer4.0.bn3.running_var"
  }
  initializer {
      dims: 2048
      data_type: 1
      name: "body.layer4.0.bn3.weight"
  }
  initializer {
      dims: 512
      dims: 1024
      dims: 1
      dims: 1
      data_type: 1
      name: "body.layer4.0.conv1.weight"
  }
  initializer {
      dims: 512
      dims: 512
      dims: 3
      dims: 3
      data_type: 1
      name: "body.layer4.0.conv2.weight"
  }
  initializer {
      dims: 2048
      dims: 512
      dims: 1
      dims: 1
      data_type: 1
      name: "body.layer4.0.conv3.weight"
  }
  initializer {
      dims: 2048
      dims: 1024
      dims: 1
      dims: 1
      data_type: 1
      name: "body.layer4.0.downsample.0.weight"
  }
  initializer {
      dims: 2048
      data_type: 1
      name: "body.layer4.0.downsample.1.bias"
  }
  initializer {
      dims: 2048
      data_type: 1
      name: "body.layer4.0.downsample.1.running_mean"
  }
  initializer {
      dims: 2048
      data_type: 1
      name: "body.layer4.0.downsample.1.running_var"
  }
  initializer {
      dims: 2048
      data_type: 1
      name: "body.layer4.0.downsample.1.weight"
  }
  initializer {
      dims: 512
      data_type: 1
      name: "body.layer4.1.bn1.bias"
  }
  initializer {
      dims: 512
      data_type: 1
      name: "body.layer4.1.bn1.running_mean"
  }
  initializer {
      dims: 512
      data_type: 1
      name: "body.layer4.1.bn1.running_var"
  }
  initializer {
      dims: 512
      data_type: 1
      name: "body.layer4.1.bn1.weight"
  }
  initializer {
      dims: 512
      data_type: 1
      name: "body.layer4.1.bn2.bias"
  }
  initializer {
      dims: 512
      data_type: 1
      name: "body.layer4.1.bn2.running_mean"
  }
  initializer {
      dims: 512
      data_type: 1
      name: "body.layer4.1.bn2.running_var"
  }
  initializer {
      dims: 512
      data_type: 1
      name: "body.layer4.1.bn2.weight"
  }
  initializer {
      dims: 2048
      data_type: 1
      name: "body.layer4.1.bn3.bias"
  }
  initializer {
      dims: 2048
      data_type: 1
      name: "body.layer4.1.bn3.running_mean"
  }
  initializer {
      dims: 2048
      data_type: 1
      name: "body.layer4.1.bn3.running_var"
  }
  initializer {
      dims: 2048
      data_type: 1
      name: "body.layer4.1.bn3.weight"
  }
  initializer {
      dims: 512
      dims: 2048
      dims: 1
      dims: 1
      data_type: 1
      name: "body.layer4.1.conv1.weight"
  }
  initializer {
      dims: 512
      dims: 512
      dims: 3
      dims: 3
      data_type: 1
      name: "body.layer4.1.conv2.weight"
  }
  initializer {
      dims: 2048
      dims: 512
      dims: 1
      dims: 1
      data_type: 1
      name: "body.layer4.1.conv3.weight"
  }
  initializer {
      dims: 512
      data_type: 1
      name: "body.layer4.2.bn1.bias"
  }
  initializer {
      dims: 512
      data_type: 1
      name: "body.layer4.2.bn1.running_mean"
  }
  initializer {
      dims: 512
      data_type: 1
      name: "body.layer4.2.bn1.running_var"
  }
  initializer {
      dims: 512
      data_type: 1
      name: "body.layer4.2.bn1.weight"
  }
  initializer {
      dims: 512
      data_type: 1
      name: "body.layer4.2.bn2.bias"
  }
  initializer {
      dims: 512
      data_type: 1
      name: "body.layer4.2.bn2.running_mean"
  }
  initializer {
      dims: 512
      data_type: 1
      name: "body.layer4.2.bn2.running_var"
  }
  initializer {
      dims: 512
      data_type: 1
      name: "body.layer4.2.bn2.weight"
  }
  initializer {
      dims: 2048
      data_type: 1
      name: "body.layer4.2.bn3.bias"
  }
  initializer {
      dims: 2048
      data_type: 1
      name: "body.layer4.2.bn3.running_mean"
  }
  initializer {
      dims: 2048
      data_type: 1
      name: "body.layer4.2.bn3.running_var"
  }
  initializer {
      dims: 2048
      data_type: 1
      name: "body.layer4.2.bn3.weight"
  }
  initializer {
      dims: 512
      dims: 2048
      dims: 1
      dims: 1
      data_type: 1
      name: "body.layer4.2.conv1.weight"
  }
  initializer {
      dims: 512
      dims: 512
      dims: 3
      dims: 3
      data_type: 1
      name: "body.layer4.2.conv2.weight"
  }
  initializer {
      dims: 2048
      dims: 512
      dims: 1
      dims: 1
      data_type: 1
      name: "body.layer4.2.conv3.weight"
  }
  initializer {
      dims: 256
      dims: 256
      dims: 3
      dims: 3
      data_type: 1
      name: "fpn.merge1.0.weight"
  }
  initializer {
      dims: 256
      data_type: 1
      name: "fpn.merge1.1.bias"
  }
  initializer {
      dims: 256
      data_type: 1
      name: "fpn.merge1.1.running_mean"
  }
  initializer {
      dims: 256
      data_type: 1
      name: "fpn.merge1.1.running_var"
  }
  initializer {
      dims: 256
      data_type: 1
      name: "fpn.merge1.1.weight"
  }
  initializer {
      dims: 256
      dims: 256
      dims: 3
      dims: 3
      data_type: 1
      name: "fpn.merge2.0.weight"
  }
  initializer {
      dims: 256
      data_type: 1
      name: "fpn.merge2.1.bias"
  }
  initializer {
      dims: 256
      data_type: 1
      name: "fpn.merge2.1.running_mean"
  }
  initializer {
      dims: 256
      data_type: 1
      name: "fpn.merge2.1.running_var"
  }
  initializer {
      dims: 256
      data_type: 1
      name: "fpn.merge2.1.weight"
  }
  initializer {
      dims: 256
      dims: 512
      dims: 1
      dims: 1
      data_type: 1
      name: "fpn.output1.0.weight"
  }
  initializer {
      dims: 256
      data_type: 1
      name: "fpn.output1.1.bias"
  }
  initializer {
      dims: 256
      data_type: 1
      name: "fpn.output1.1.running_mean"
  }
  initializer {
      dims: 256
      data_type: 1
      name: "fpn.output1.1.running_var"
  }
  initializer {
      dims: 256
      data_type: 1
      name: "fpn.output1.1.weight"
  }
  initializer {
      dims: 256
      dims: 1024
      dims: 1
      dims: 1
      data_type: 1
      name: "fpn.output2.0.weight"
  }
  initializer {
      dims: 256
      data_type: 1
      name: "fpn.output2.1.bias"
  }
  initializer {
      dims: 256
      data_type: 1
      name: "fpn.output2.1.running_mean"
  }
  initializer {
      dims: 256
      data_type: 1
      name: "fpn.output2.1.running_var"
  }
  initializer {
      dims: 256
      data_type: 1
      name: "fpn.output2.1.weight"
  }
  initializer {
      dims: 256
      dims: 2048
      dims: 1
      dims: 1
      data_type: 1
      name: "fpn.output3.0.weight"
  }
  initializer {
      dims: 256
      data_type: 1
      name: "fpn.output3.1.bias"
  }
  initializer {
      dims: 256
      data_type: 1
      name: "fpn.output3.1.running_mean"
  }
  initializer {
      dims: 256
      data_type: 1
      name: "fpn.output3.1.running_var"
  }
  initializer {
      dims: 256
      data_type: 1
      name: "fpn.output3.1.weight"
  }
  initializer {
      dims: 128
      dims: 256
      dims: 3
      dims: 3
      data_type: 1
      name: "ssh1.conv3X3.0.weight"
  }
  initializer {
      dims: 128
      data_type: 1
      name: "ssh1.conv3X3.1.bias"
  }
  initializer {
      dims: 128
      data_type: 1
      name: "ssh1.conv3X3.1.running_mean"
  }
  initializer {
      dims: 128
      data_type: 1
      name: "ssh1.conv3X3.1.running_var"
  }
  initializer {
      dims: 128
      data_type: 1
      name: "ssh1.conv3X3.1.weight"
  }
  initializer {
      dims: 64
      dims: 256
      dims: 3
      dims: 3
      data_type: 1
      name: "ssh1.conv5X5_1.0.weight"
  }
  initializer {
      dims: 64
      data_type: 1
      name: "ssh1.conv5X5_1.1.bias"
  }
  initializer {
      dims: 64
      data_type: 1
      name: "ssh1.conv5X5_1.1.running_mean"
  }
  initializer {
      dims: 64
      data_type: 1
      name: "ssh1.conv5X5_1.1.running_var"
  }
  initializer {
      dims: 64
      data_type: 1
      name: "ssh1.conv5X5_1.1.weight"
  }
  initializer {
      dims: 64
      dims: 64
      dims: 3
      dims: 3
      data_type: 1
      name: "ssh1.conv5X5_2.0.weight"
  }
  initializer {
      dims: 64
      data_type: 1
      name: "ssh1.conv5X5_2.1.bias"
  }
  initializer {
      dims: 64
      data_type: 1
      name: "ssh1.conv5X5_2.1.running_mean"
  }
  initializer {
      dims: 64
      data_type: 1
      name: "ssh1.conv5X5_2.1.running_var"
  }
  initializer {
      dims: 64
      data_type: 1
      name: "ssh1.conv5X5_2.1.weight"
  }
  initializer {
      dims: 64
      dims: 64
      dims: 3
      dims: 3
      data_type: 1
      name: "ssh1.conv7X7_2.0.weight"
  }
  initializer {
      dims: 64
      data_type: 1
      name: "ssh1.conv7X7_2.1.bias"
  }
  initializer {
      dims: 64
      data_type: 1
      name: "ssh1.conv7X7_2.1.running_mean"
  }
  initializer {
      dims: 64
      data_type: 1
      name: "ssh1.conv7X7_2.1.running_var"
  }
  initializer {
      dims: 64
      data_type: 1
      name: "ssh1.conv7X7_2.1.weight"
  }
  initializer {
      dims: 64
      dims: 64
      dims: 3
      dims: 3
      data_type: 1
      name: "ssh1.conv7x7_3.0.weight"
  }
  initializer {
      dims: 64
      data_type: 1
      name: "ssh1.conv7x7_3.1.bias"
  }
  initializer {
      dims: 64
      data_type: 1
      name: "ssh1.conv7x7_3.1.running_mean"
  }
  initializer {
      dims: 64
      data_type: 1
      name: "ssh1.conv7x7_3.1.running_var"
  }
  initializer {
      dims: 64
      data_type: 1
      name: "ssh1.conv7x7_3.1.weight"
  }
  initializer {
      dims: 128
      dims: 256
      dims: 3
      dims: 3
      data_type: 1
      name: "ssh2.conv3X3.0.weight"
  }
  initializer {
      dims: 128
      data_type: 1
      name: "ssh2.conv3X3.1.bias"
  }
  initializer {
      dims: 128
      data_type: 1
      name: "ssh2.conv3X3.1.running_mean"
  }
  initializer {
      dims: 128
      data_type: 1
      name: "ssh2.conv3X3.1.running_var"
  }
  initializer {
      dims: 128
      data_type: 1
      name: "ssh2.conv3X3.1.weight"
  }
  initializer {
      dims: 64
      dims: 256
      dims: 3
      dims: 3
      data_type: 1
      name: "ssh2.conv5X5_1.0.weight"
  }
  initializer {
      dims: 64
      data_type: 1
      name: "ssh2.conv5X5_1.1.bias"
  }
  initializer {
      dims: 64
      data_type: 1
      name: "ssh2.conv5X5_1.1.running_mean"
  }
  initializer {
      dims: 64
      data_type: 1
      name: "ssh2.conv5X5_1.1.running_var"
  }
  initializer {
      dims: 64
      data_type: 1
      name: "ssh2.conv5X5_1.1.weight"
  }
  initializer {
      dims: 64
      dims: 64
      dims: 3
      dims: 3
      data_type: 1
      name: "ssh2.conv5X5_2.0.weight"
  }
  initializer {
      dims: 64
      data_type: 1
      name: "ssh2.conv5X5_2.1.bias"
  }
  initializer {
      dims: 64
      data_type: 1
      name: "ssh2.conv5X5_2.1.running_mean"
  }
  initializer {
      dims: 64
      data_type: 1
      name: "ssh2.conv5X5_2.1.running_var"
  }
  initializer {
      dims: 64
      data_type: 1
      name: "ssh2.conv5X5_2.1.weight"
  }
  initializer {
      dims: 64
      dims: 64
      dims: 3
      dims: 3
      data_type: 1
      name: "ssh2.conv7X7_2.0.weight"
  }
  initializer {
      dims: 64
      data_type: 1
      name: "ssh2.conv7X7_2.1.bias"
  }
  initializer {
      dims: 64
      data_type: 1
      name: "ssh2.conv7X7_2.1.running_mean"
  }
  initializer {
      dims: 64
      data_type: 1
      name: "ssh2.conv7X7_2.1.running_var"
  }
  initializer {
      dims: 64
      data_type: 1
      name: "ssh2.conv7X7_2.1.weight"
  }
  initializer {
      dims: 64
      dims: 64
      dims: 3
      dims: 3
      data_type: 1
      name: "ssh2.conv7x7_3.0.weight"
  }
  initializer {
      dims: 64
      data_type: 1
      name: "ssh2.conv7x7_3.1.bias"
  }
  initializer {
      dims: 64
      data_type: 1
      name: "ssh2.conv7x7_3.1.running_mean"
  }
  initializer {
      dims: 64
      data_type: 1
      name: "ssh2.conv7x7_3.1.running_var"
  }
  initializer {
      dims: 64
      data_type: 1
      name: "ssh2.conv7x7_3.1.weight"
  }
  initializer {
      dims: 128
      dims: 256
      dims: 3
      dims: 3
      data_type: 1
      name: "ssh3.conv3X3.0.weight"
  }
  initializer {
      dims: 128
      data_type: 1
      name: "ssh3.conv3X3.1.bias"
  }
  initializer {
      dims: 128
      data_type: 1
      name: "ssh3.conv3X3.1.running_mean"
  }
  initializer {
      dims: 128
      data_type: 1
      name: "ssh3.conv3X3.1.running_var"
  }
  initializer {
      dims: 128
      data_type: 1
      name: "ssh3.conv3X3.1.weight"
  }
  initializer {
      dims: 64
      dims: 256
      dims: 3
      dims: 3
      data_type: 1
      name: "ssh3.conv5X5_1.0.weight"
  }
  initializer {
      dims: 64
      data_type: 1
      name: "ssh3.conv5X5_1.1.bias"
  }
  initializer {
      dims: 64
      data_type: 1
      name: "ssh3.conv5X5_1.1.running_mean"
  }
  initializer {
      dims: 64
      data_type: 1
      name: "ssh3.conv5X5_1.1.running_var"
  }
  initializer {
      dims: 64
      data_type: 1
      name: "ssh3.conv5X5_1.1.weight"
  }
  initializer {
      dims: 64
      dims: 64
      dims: 3
      dims: 3
      data_type: 1
      name: "ssh3.conv5X5_2.0.weight"
  }
  initializer {
      dims: 64
      data_type: 1
      name: "ssh3.conv5X5_2.1.bias"
  }
  initializer {
      dims: 64
      data_type: 1
      name: "ssh3.conv5X5_2.1.running_mean"
  }
  initializer {
      dims: 64
      data_type: 1
      name: "ssh3.conv5X5_2.1.running_var"
  }
  initializer {
      dims: 64
      data_type: 1
      name: "ssh3.conv5X5_2.1.weight"
  }
  initializer {
      dims: 64
      dims: 64
      dims: 3
      dims: 3
      data_type: 1
      name: "ssh3.conv7X7_2.0.weight"
  }
  initializer {
      dims: 64
      data_type: 1
      name: "ssh3.conv7X7_2.1.bias"
  }
  initializer {
      dims: 64
      data_type: 1
      name: "ssh3.conv7X7_2.1.running_mean"
  }
  initializer {
      dims: 64
      data_type: 1
      name: "ssh3.conv7X7_2.1.running_var"
  }
  initializer {
      dims: 64
      data_type: 1
      name: "ssh3.conv7X7_2.1.weight"
  }
  initializer {
      dims: 64
      dims: 64
      dims: 3
      dims: 3
      data_type: 1
      name: "ssh3.conv7x7_3.0.weight"
  }
  initializer {
      dims: 64
      data_type: 1
      name: "ssh3.conv7x7_3.1.bias"
  }
  initializer {
      dims: 64
      data_type: 1
      name: "ssh3.conv7x7_3.1.running_mean"
  }
  initializer {
      dims: 64
      data_type: 1
      name: "ssh3.conv7x7_3.1.running_var"
  }
  initializer {
      dims: 64
      data_type: 1
      name: "ssh3.conv7x7_3.1.weight"
  }
  input {
    name: "img"
    type {
      tensor_type {
        elem_type: 1
        shape {
          dim {
            dim_value: 1
          }
          dim {
            dim_value: 3
          }
          dim {
            dim_param: "h"
          }
          dim {
            dim_param: "w"
          }
        }
      }
    }
  }
  output {
    name: "loc"
    type {
      tensor_type {
        elem_type: 1
        shape {
          dim {
            dim_value: 1
          }
          dim {
            dim_value: 46720
          }
          dim {
            dim_value: 4
          }
        }
      }
    }
  }
  output {
    name: "conf"
    type {
      tensor_type {
        elem_type: 1
        shape {
          dim {
            dim_value: 1
          }
          dim {
            dim_value: 46720
          }
          dim {
            dim_value: 2
          }
        }
      }
    }
  }
  output {
    name: "landms"
    type {
      tensor_type {
        elem_type: 1
        shape {
          dim {
            dim_value: 1
          }
          dim {
            dim_value: 46720
          }
          dim {
            dim_value: 10
          }
        }
      }
    }
  }
}
opset_import {
  version: 11
}
